node {
  name: "global_step/Initializer/zeros"
  op: "Const"
  attr {
    key: "_class"
    value {
      list {
        s: "loc:@global_step"
      }
    }
  }
  attr {
    key: "_output_shapes"
    value {
      list {
        shape {
        }
      }
    }
  }
  attr {
    key: "dtype"
    value {
      type: DT_INT64
    }
  }
  attr {
    key: "value"
    value {
      tensor {
        dtype: DT_INT64
        tensor_shape {
        }
        int64_val: 0
      }
    }
  }
}
node {
  name: "global_step"
  op: "VariableV2"
  attr {
    key: "_class"
    value {
      list {
        s: "loc:@global_step"
      }
    }
  }
  attr {
    key: "_output_shapes"
    value {
      list {
        shape {
        }
      }
    }
  }
  attr {
    key: "container"
    value {
      s: ""
    }
  }
  attr {
    key: "dtype"
    value {
      type: DT_INT64
    }
  }
  attr {
    key: "shape"
    value {
      shape {
      }
    }
  }
  attr {
    key: "shared_name"
    value {
      s: ""
    }
  }
}
node {
  name: "global_step/Assign"
  op: "Assign"
  input: "global_step"
  input: "global_step/Initializer/zeros"
  attr {
    key: "T"
    value {
      type: DT_INT64
    }
  }
  attr {
    key: "_class"
    value {
      list {
        s: "loc:@global_step"
      }
    }
  }
  attr {
    key: "_output_shapes"
    value {
      list {
        shape {
        }
      }
    }
  }
  attr {
    key: "use_locking"
    value {
      b: true
    }
  }
  attr {
    key: "validate_shape"
    value {
      b: true
    }
  }
}
node {
  name: "global_step/read"
  op: "Identity"
  input: "global_step"
  attr {
    key: "T"
    value {
      type: DT_INT64
    }
  }
  attr {
    key: "_class"
    value {
      list {
        s: "loc:@global_step"
      }
    }
  }
  attr {
    key: "_output_shapes"
    value {
      list {
        shape {
        }
      }
    }
  }
}
node {
  name: "global_step/IsVariableInitialized"
  op: "IsVariableInitialized"
  input: "global_step"
  attr {
    key: "_class"
    value {
      list {
        s: "loc:@global_step"
      }
    }
  }
  attr {
    key: "_output_shapes"
    value {
      list {
        shape {
        }
      }
    }
  }
  attr {
    key: "dtype"
    value {
      type: DT_INT64
    }
  }
}
node {
  name: "global_step/cond/Switch"
  op: "Switch"
  input: "global_step/IsVariableInitialized"
  input: "global_step/IsVariableInitialized"
  attr {
    key: "T"
    value {
      type: DT_BOOL
    }
  }
  attr {
    key: "_output_shapes"
    value {
      list {
        shape {
        }
        shape {
        }
      }
    }
  }
}
node {
  name: "global_step/cond/switch_t"
  op: "Identity"
  input: "global_step/cond/Switch:1"
  attr {
    key: "T"
    value {
      type: DT_BOOL
    }
  }
  attr {
    key: "_output_shapes"
    value {
      list {
        shape {
        }
      }
    }
  }
}
node {
  name: "global_step/cond/switch_f"
  op: "Identity"
  input: "global_step/cond/Switch"
  attr {
    key: "T"
    value {
      type: DT_BOOL
    }
  }
  attr {
    key: "_output_shapes"
    value {
      list {
        shape {
        }
      }
    }
  }
}
node {
  name: "global_step/cond/pred_id"
  op: "Identity"
  input: "global_step/IsVariableInitialized"
  attr {
    key: "T"
    value {
      type: DT_BOOL
    }
  }
  attr {
    key: "_output_shapes"
    value {
      list {
        shape {
        }
      }
    }
  }
}
node {
  name: "global_step/cond/read"
  op: "Identity"
  input: "global_step/cond/read/Switch:1"
  attr {
    key: "T"
    value {
      type: DT_INT64
    }
  }
  attr {
    key: "_output_shapes"
    value {
      list {
        shape {
        }
      }
    }
  }
}
node {
  name: "global_step/cond/read/Switch"
  op: "RefSwitch"
  input: "global_step"
  input: "global_step/cond/pred_id"
  attr {
    key: "T"
    value {
      type: DT_INT64
    }
  }
  attr {
    key: "_class"
    value {
      list {
        s: "loc:@global_step"
      }
    }
  }
  attr {
    key: "_output_shapes"
    value {
      list {
        shape {
        }
        shape {
        }
      }
    }
  }
}
node {
  name: "global_step/cond/Switch_1"
  op: "Switch"
  input: "global_step/Initializer/zeros"
  input: "global_step/cond/pred_id"
  attr {
    key: "T"
    value {
      type: DT_INT64
    }
  }
  attr {
    key: "_class"
    value {
      list {
        s: "loc:@global_step"
      }
    }
  }
  attr {
    key: "_output_shapes"
    value {
      list {
        shape {
        }
        shape {
        }
      }
    }
  }
}
node {
  name: "global_step/cond/Merge"
  op: "Merge"
  input: "global_step/cond/Switch_1"
  input: "global_step/cond/read"
  attr {
    key: "N"
    value {
      i: 2
    }
  }
  attr {
    key: "T"
    value {
      type: DT_INT64
    }
  }
  attr {
    key: "_output_shapes"
    value {
      list {
        shape {
        }
        shape {
        }
      }
    }
  }
}
node {
  name: "global_step/add/y"
  op: "Const"
  attr {
    key: "_output_shapes"
    value {
      list {
        shape {
        }
      }
    }
  }
  attr {
    key: "dtype"
    value {
      type: DT_INT64
    }
  }
  attr {
    key: "value"
    value {
      tensor {
        dtype: DT_INT64
        tensor_shape {
        }
        int64_val: 0
      }
    }
  }
}
node {
  name: "global_step/add"
  op: "AddV2"
  input: "global_step/cond/Merge"
  input: "global_step/add/y"
  attr {
    key: "T"
    value {
      type: DT_INT64
    }
  }
  attr {
    key: "_output_shapes"
    value {
      list {
        shape {
        }
      }
    }
  }
}
node {
  name: "Const"
  op: "Const"
  device: "/device:CPU:0"
  attr {
    key: "_output_shapes"
    value {
      list {
        shape {
          dim {
            size: 10000
          }
        }
      }
    }
  }
  attr {
    key: "dtype"
    value {
      type: DT_DOUBLE
    }
  }
  attr {
    key: "value"
    value {
      tensor {
        dtype: DT_DOUBLE
        tensor_shape {
          dim {
            size: 10000
          }
        }
        tensor_content: "…"
      }
    }
  }
}
node {
  name: "SparseTensor/indices"
  op: "Const"
  device: "/device:CPU:0"
  attr {
    key: "_output_shapes"
    value {
      list {
        shape {
          dim {
            size: 10000
          }
          dim {
            size: 2
          }
        }
      }
    }
  }
  attr {
    key: "dtype"
    value {
      type: DT_INT64
    }
  }
  attr {
    key: "value"
    value {
      tensor {
        dtype: DT_INT64
        tensor_shape {
          dim {
            size: 10000
          }
          dim {
            size: 2
          }
        }
        tensor_content: "…"
      }
    }
  }
}
node {
  name: "SparseTensor/values"
  op: "Const"
  device: "/device:CPU:0"
  attr {
    key: "_output_shapes"
    value {
      list {
        shape {
          dim {
            size: 10000
          }
        }
      }
    }
  }
  attr {
    key: "dtype"
    value {
      type: DT_STRING
    }
  }
  attr {
    key: "value"
    value {
      tensor {
        dtype: DT_STRING
        tensor_shape {
          dim {
            size: 10000
          }
        }
        string_val: "Goblin"
        string_val: "Goblin"
        string_val: "ManBears"
        string_val: "ManBears"
        string_val: "Goblin"
        string_val: "Goblin"
        string_val: "ManBears"
        string_val: "ManBears"
        string_val: "Human"
        string_val: "Human"
        string_val: "Goblin"
        string_val: "ManBears"
        string_val: "ManBears"
        string_val: "Human"
        string_val: "Goblin"
        string_val: "Goblin"
        string_val: "ManBears"
        string_val: "Goblin"
        string_val: "ManBears"
        string_val: "Human"
        string_val: "Goblin"
        string_val: "ManBears"
        string_val: "Human"
        string_val: "Human"
        string_val: "Human"
        string_val: "Human"
        string_val: "ManBears"
        string_val: "Goblin"
        string_val: "Goblin"
        string_val: "Human"
        string_val: "Goblin"
        string_val: "ManBears"
        string_val: "Goblin"
        string_val: "ManBears"
        string_val: "ManBears"
        string_val: "Human"
        string_val: "Goblin"
        string_val: "Human"
        string_val: "ManBears"
        string_val: "Human"
        string_val: "Goblin"
        string_val: "ManBears"
        string_val: "Human"
        string_val: "Human"
        string_val: "Goblin"
        string_val: "ManBears"
        string_val: "ManBears"
        string_val: "Human"
        string_val: "ManBears"
        string_val: "Goblin"
        string_val: "ManBears"
        string_val: "Goblin"
        string_val: "ManBears"
        string_val: "ManBears"
        string_val: "ManBears"
        string_val: "Human"
        string_val: "Human"
        string_val: "ManBears"
        string_val: "Human"
        string_val: "ManBears"
        string_val: "Goblin"
        string_val: "ManBears"
        string_val: "ManBears"
        string_val: "ManBears"
        string_val: "Goblin"
        string_val: "Goblin"
        string_val: "Goblin"
        string_val: "Goblin"
        string_val: "ManBears"
        string_val: "Goblin"
        string_val: "ManBears"
        string_val: "Human"
        string_val: "ManBears"
        string_val: "Goblin"
        string_val: "Goblin"
        string_val: "Goblin"
        string_val: "Goblin"
        string_val: "Goblin"
        string_val: "Goblin"
        string_val: "ManBears"
        string_val: "ManBears"
        string_val: "Goblin"
        string_val: "Goblin"
        string_val: "Goblin"
        string_val: "ManBears"
        string_val: "ManBears"
        string_val: "Human"
        string_val: "Goblin"
        string_val: "Goblin"
        string_val: "Goblin"
        string_val: "Goblin"
        string_val: "Human"
        string_val: "ManBears"
        string_val: "Human"
        string_val: "Goblin"
        string_val: "Human"
        string_val: "Human"
        string_val: "Human"
        string_val: "Goblin"
        string_val: "ManBears"
        string_val: "Human"
        string_val: "ManBears"
        string_val: "ManBears"
        string_val: "Human"
        string_val: "ManBears"
        string_val: "ManBears"
        string_val: "ManBears"
        string_val: "Human"
        string_val: "Goblin"
        string_val: "Goblin"
        string_val: "Human"
        string_val: "Human"
        string_val: "ManBears"
        string_val: "ManBears"
        string_val: "ManBears"
        string_val: "Human"
        string_val: "Human"
        string_val: "ManBears"
        string_val: "ManBears"
        string_val: "Human"
        string_val: "ManBears"
        string_val: "ManBears"
        string_val: "ManBears"
        string_val: "Human"
        string_val: "Human"
        string_val: "Human"
        string_val: "Human"
        string_val: "Human"
        string_val: "ManBears"
        string_val: "Human"
        string_val: "ManBears"
        string_val: "ManBears"
        string_val: "Human"
        string_val: "Goblin"
        string_val: "Goblin"
        string_val: "Goblin"
        string_val: "ManBears"
        string_val: "Human"
        string_val: "ManBears"
        string_val: "Goblin"
        string_val: "ManBears"
        string_val: "ManBears"
        string_val: "Human"
        string_val: "Goblin"
        string_val: "ManBears"
        string_val: "Human"
        string_val: "Goblin"
        string_val: "ManBears"
        string_val: "Goblin"
        string_val: "Human"
        string_val: "ManBears"
        string_val: "ManBears"
        string_val: "ManBears"
        string_val: "Human"
        string_val: "Human"
        string_val: "Goblin"
        string_val: "Human"
        string_val: "ManBears"
        string_val: "ManBears"
        string_val: "Human"
        string_val: "Goblin"
        string_val: "Goblin"
        string_val: "ManBears"
        string_val: "Human"
        string_val: "ManBears"
        string_val: "ManBears"
        string_val: "ManBears"
        string_val: "ManBears"
        string_val: "Goblin"
        string_val: "Human"
        string_val: "Human"
        string_val: "Human"
        string_val: "ManBears"
        string_val: "ManBears"
        string_val: "Human"
        string_val: "ManBears"
        string_val: "Goblin"
        string_val: "Goblin"
        string_val: "ManBears"
        string_val: "Human"
        string_val: "ManBears"
        string_val: "ManBears"
        string_val: "Goblin"
        string_val: "ManBears"
        string_val: "ManBears"
        string_val: "Goblin"
        string_val: "Goblin"
        string_val: "Human"
        string_val: "ManBears"
        string_val: "Human"
        string_val: "Human"
        string_val: "ManBears"
        string_val: "Goblin"
        string_val: "Human"
        string_val: "Human"
        string_val: "ManBears"
        string_val: "ManBears"
        string_val: "Goblin"
        string_val: "Goblin"
        string_val: "Human"
        string_val: "Human"
        string_val: "ManBears"
        string_val: "Human"
        string_val: "Goblin"
        string_val: "Goblin"
        string_val: "Human"
        string_val: "Human"
        string_val: "Goblin"
        string_val: "Human"
        string_val: "Goblin"
        string_val: "ManBears"
        string_val: "ManBears"
        string_val: "Human"
        string_val: "ManBears"
        string_val: "ManBears"
        string_val: "Human"
        string_val: "ManBears"
        string_val: "ManBears"
        string_val: "ManBears"
        string_val: "Goblin"
        string_val: "ManBears"
        string_val: "ManBears"
        string_val: "Human"
        string_val: "Goblin"
        string_val: "Goblin"
        string_val: "ManBears"
        string_val: "Human"
        string_val: "Human"
        string_val: "Goblin"
        string_val: "Human"
        string_val: "Goblin"
        string_val: "Goblin"
        string_val: "Human"
        string_val: "Human"
        string_val: "Goblin"
        string_val: "ManBears"
        string_val: "Goblin"
        string_val: "Goblin"
        string_val: "ManBears"
        string_val: "ManBears"
        string_val: "Human"
        string_val: "Human"
        string_val: "Human"
        string_val: "Goblin"
        string_val: "Goblin"
        string_val: "Human"
        string_val: "Goblin"
        string_val: "Human"
        string_val: "Goblin"
        string_val: "Goblin"
        string_val: "Goblin"
        string_val: "Goblin"
        string_val: "ManBears"
        string_val: "ManBears"
        string_val: "ManBears"
        string_val: "ManBears"
        string_val: "Human"
        string_val: "Human"
        string_val: "Human"
        string_val: "Goblin"
        string_val: "ManBears"
        string_val: "Goblin"
        string_val: "Goblin"
        string_val: "Goblin"
        string_val: "Human"
        string_val: "Goblin"
        string_val: "ManBears"
        string_val: "ManBears"
        string_val: "Human"
        string_val: "ManBears"
        string_val: "Goblin"
        string_val: "Human"
        string_val: "ManBears"
        string_val: "ManBears"
        string_val: "Goblin"
        string_val: "Goblin"
        string_val: "Goblin"
        string_val: "Human"
        string_val: "ManBears"
        string_val: "ManBears"
        string_val: "Goblin"
        string_val: "Human"
        string_val: "Human"
        string_val: "ManBears"
        string_val: "Goblin"
        string_val: "Goblin"
        string_val: "Human"
        string_val: "Human"
        string_val: "ManBears"
        string_val: "Goblin"
        string_val: "Human"
        string_val: "ManBears"
        string_val: "ManBears"
        string_val: "Goblin"
        string_val: "Goblin"
        string_val: "Human"
        string_val: "Goblin"
        string_val: "ManBears"
        string_val: "Human"
        string_val: "Human"
        string_val: "Human"
        string_val: "Goblin"
        string_val: "ManBears"
        string_val: "Goblin"
        string_val: "Human"
        string_val: "Human"
        string_val: "Goblin"
        string_val: "Human"
        string_val: "Goblin"
        string_val: "Goblin"
        string_val: "ManBears"
        string_val: "Goblin"
        string_val: "Goblin"
        string_val: "Goblin"
        string_val: "Human"
        string_val: "Human"
        string_val: "ManBears"
        string_val: "Human"
        string_val: "Goblin"
        string_val: "ManBears"
        string_val: "Goblin"
        string_val: "Human"
        string_val: "Goblin"
        string_val: "Goblin"
        string_val: "Human"
        string_val: "ManBears"
        string_val: "Human"
        string_val: "Goblin"
        string_val: "Goblin"
        string_val: "ManBears"
        string_val: "Human"
        string_val: "ManBears"
        string_val: "Human"
        string_val: "ManBears"
        string_val: "Human"
        string_val: "ManBears"
        string_val: "Goblin"
        string_val: "Goblin"
        string_val: "ManBears"
        string_val: "Goblin"
        string_val: "Human"
        string_val: "ManBears"
        string_val: "ManBears"
        string_val: "ManBears"
        string_val: "Human"
        string_val: "Goblin"
        string_val: "ManBears"
        string_val: "Human"
        string_val: "Human"
        string_val: "ManBears"
        string_val: "ManBears"
        string_val: "ManBears"
        string_val: "Goblin"
        string_val: "Goblin"
        string_val: "Human"
        string_val: "Human"
        string_val: "ManBears"
        string_val: "Human"
        string_val: "Human"
        string_val: "Human"
        string_val: "ManBears"
        string_val: "Human"
        string_val: "ManBears"
        string_val: "Human"
        string_val: "Human"
        string_val: "ManBears"
        string_val: "ManBears"
        string_val: "Human"
        string_val: "Human"
        string_val: "ManBears"
        string_val: "Goblin"
        string_val: "Human"
        string_val: "Human"
        string_val: "Human"
        string_val: "Goblin"
        string_val: "Human"
        string_val: "ManBears"
        string_val: "Human"
        string_val: "ManBears"
        string_val: "ManBears"
        string_val: "Human"
        string_val: "ManBears"
        string_val: "ManBears"
        string_val: "Human"
        string_val: "Human"
        string_val: "Goblin"
        string_val: "Goblin"
        string_val: "Goblin"
        string_val: "Goblin"
        string_val: "Goblin"
        string_val: "Goblin"
        string_val: "Human"
        string_val: "Human"
        string_val: "Goblin"
        string_val: "Human"
        string_val: "ManBears"
        string_val: "ManBears"
        string_val: "ManBears"
        string_val: "Goblin"
        string_val: "ManBears"
        string_val: "Human"
        string_val: "Goblin"
        string_val: "Goblin"
        string_val: "ManBears"
        string_val: "ManBears"
        string_val: "ManBears"
        string_val: "Goblin"
        string_val: "Human"
        string_val: "Goblin"
        string_val: "Human"
        string_val: "Human"
        string_val: "Human"
        string_val: "Human"
        string_val: "Goblin"
        string_val: "Goblin"
        string_val: "Human"
        string_val: "Goblin"
        string_val: "Human"
        string_val: "Goblin"
        string_val: "Goblin"
        string_val: "ManBears"
        string_val: "ManBears"
        string_val: "Human"
        string_val: "Goblin"
        string_val: "ManBears"
        string_val: "Goblin"
        string_val: "Goblin"
        string_val: "Human"
        string_val: "ManBears"
        string_val: "ManBears"
        string_val: "Human"
        string_val: "Human"
        string_val: "ManBears"
        string_val: "ManBears"
        string_val: "Goblin"
        string_val: "Human"
        string_val: "ManBears"
        string_val: "ManBears"
        string_val: "ManBears"
        string_val: "Goblin"
        string_val: "Goblin"
        string_val: "ManBears"
        string_val: "ManBears"
        string_val: "Human"
        string_val: "Human"
        string_val: "Human"
        string_val: "ManBears"
        string_val: "Goblin"
        string_val: "Goblin"
        string_val: "ManBears"
        string_val: "Goblin"
        string_val: "Human"
        string_val: "Goblin"
        string_val: "ManBears"
        string_val: "ManBears"
        string_val: "ManBears"
        string_val: "ManBears"
        string_val: "ManBears"
        string_val: "Human"
        string_val: "Human"
        string_val: "ManBears"
        string_val: "ManBears"
        string_val: "ManBears"
        string_val: "ManBears"
        string_val: "Goblin"
        string_val: "Human"
        string_val: "Human"
        string_val: "Goblin"
        string_val: "ManBears"
        string_val: "Human"
        string_val: "ManBears"
        string_val: "Goblin"
        string_val: "Human"
        string_val: "Goblin"
        string_val: "Goblin"
        string_val: "Human"
        string_val: "Goblin"
        string_val: "Goblin"
        string_val: "Goblin"
        string_val: "Goblin"
        string_val: "Goblin"
        string_val: "Goblin"
        string_val: "Goblin"
        string_val: "Goblin"
        string_val: "ManBears"
        string_val: "ManBears"
        string_val: "Goblin"
        string_val: "ManBears"
        string_val: "Human"
        string_val: "ManBears"
        string_val: "Goblin"
        string_val: "Human"
        string_val: "Human"
        string_val: "ManBears"
        string_val: "ManBears"
        string_val: "Human"
        string_val: "Human"
        string_val: "Goblin"
        string_val: "ManBears"
        string_val: "Human"
        string_val: "ManBears"
        string_val: "Goblin"
        string_val: "Human"
        string_val: "ManBears"
        string_val: "Human"
        string_val: "Goblin"
        string_val: "Human"
        string_val: "ManBears"
        string_val: "Human"
        string_val: "ManBears"
        string_val: "Goblin"
        string_val: "ManBears"
        string_val: "Goblin"
        string_val: "Human"
        string_val: "Goblin"
        string_val: "Human"
        string_val: "Human"
        string_val: "ManBears"
        string_val: "Goblin"
        string_val: "Human"
        string_val: "ManBears"
        string_val: "Goblin"
        string_val: "Human"
        string_val: "Goblin"
        string_val: "Goblin"
        string_val: "ManBears"
        string_val: "Human"
        string_val: "Goblin"
        string_val: "Human"
        string_val: "ManBears"
        string_val: "Goblin"
        string_val: "Human"
        string_val: "Goblin"
        string_val: "ManBears"
        string_val: "Human"
        string_val: "ManBears"
        string_val: "ManBears"
        string_val: "ManBears"
        string_val: "ManBears"
        string_val: "Goblin"
        string_val: "ManBears"
        string_val: "Goblin"
        string_val: "ManBears"
        string_val: "Goblin"
        string_val: "ManBears"
        string_val: "ManBears"
        string_val: "Human"
        string_val: "Goblin"
        string_val: "ManBears"
        string_val: "Goblin"
        string_val: "Human"
        string_val: "Goblin"
        string_val: "Human"
        string_val: "ManBears"
        string_val: "Goblin"
        string_val: "Human"
        string_val: "ManBears"
        string_val: "ManBears"
        string_val: "Human"
        string_val: "Goblin"
        string_val: "Goblin"
        string_val: "Goblin"
        string_val: "Goblin"
        string_val: "Goblin"
        string_val: "Human"
        string_val: "ManBears"
        string_val: "ManBears"
        string_val: "ManBears"
        string_val: "Goblin"
        string_val: "ManBears"
        string_val: "ManBears"
        string_val: "Human"
        string_val: "Goblin"
        string_val: "Goblin"
        string_val: "Goblin"
        string_val: "Goblin"
        string_val: "Goblin"
        string_val: "Human"
        string_val: "ManBears"
        string_val: "ManBears"
        string_val: "Human"
        string_val: "Human"
        string_val: "Human"
        string_val: "ManBears"
        string_val: "ManBears"
        string_val: "Human"
        string_val: "Goblin"
        string_val: "Goblin"
        string_val: "ManBears"
        string_val: "Human"
        string_val: "ManBears"
        string_val: "ManBears"
        string_val: "Human"
        string_val: "ManBears"
        string_val: "ManBears"
        string_val: "Human"
        string_val: "ManBears"
        string_val: "Human"
        string_val: "ManBears"
        string_val: "ManBears"
        string_val: "ManBears"
        string_val: "Human"
        string_val: "Human"
        string_val: "Goblin"
        string_val: "Goblin"
        string_val: "Human"
        string_val: "Goblin"
        string_val: "Goblin"
        string_val: "Human"
        string_val: "Human"
        string_val: "Human"
        string_val: "Goblin"
        string_val: "Human"
        string_val: "Human"
        string_val: "Human"
        string_val: "Goblin"
        string_val: "Goblin"
        string_val: "ManBears"
        string_val: "Human"
        string_val: "ManBears"
        string_val: "Goblin"
        string_val: "Human"
        string_val: "Human"
        string_val: "Human"
        string_val: "Human"
        string_val: "ManBears"
        string_val: "Goblin"
        string_val: "Goblin"
        string_val: "ManBears"
        string_val: "ManBears"
        string_val: "ManBears"
        string_val: "ManBears"
        string_val: "ManBears"
        string_val: "Human"
        string_val: "Goblin"
        string_val: "Goblin"
        string_val: "Human"
        string_val: "Human"
        string_val: "Goblin"
        string_val: "ManBears"
        string_val: "ManBears"
        string_val: "Goblin"
        string_val: "ManBears"
        string_val: "ManBears"
        string_val: "Human"
        string_val: "ManBears"
        string_val: "Human"
        string_val: "Goblin"
        string_val: "ManBears"
        string_val: "ManBears"
        string_val: "Human"
        string_val: "ManBears"
        string_val: "Goblin"
        string_val: "Human"
        string_val: "ManBears"
        string_val: "Goblin"
        string_val: "ManBears"
        string_val: "ManBears"
        string_val: "Human"
        string_val: "Goblin"
        string_val: "ManBears"
        string_val: "ManBears"
        string_val: "Human"
        string_val: "ManBears"
        string_val: "Human"
        string_val: "ManBears"
        string_val: "ManBears"
        string_val: "Goblin"
        string_val: "Goblin"
        string_val: "Goblin"
        string_val: "Goblin"
        string_val: "Goblin"
        string_val: "ManBears"
        string_val: "Human"
        string_val: "ManBears"
        string_val: "Human"
        string_val: "ManBears"
        string_val: "ManBears"
        string_val: "Goblin"
        string_val: "Goblin"
        string_val: "Human"
        string_val: "Goblin"
        string_val: "Goblin"
        string_val: "ManBears"
        string_val: "Human"
        string_val: "Human"
        string_val: "Goblin"
        string_val: "Human"
        string_val: "Goblin"
        string_val: "Human"
        string_val: "Human"
        string_val: "Goblin"
        string_val: "ManBears"
        string_val: "Goblin"
        string_val: "ManBears"
        string_val: "Goblin"
        string_val: "Goblin"
        string_val: "ManBears"
        string_val: "ManBears"
        string_val: "Human"
        string_val: "ManBears"
        string_val: "ManBears"
        string_val: "Human"
        string_val: "ManBears"
        string_val: "ManBears"
        string_val: "ManBears"
        string_val: "ManBears"
        string_val: "ManBears"
        string_val: "Human"
        string_val: "ManBears"
        string_val: "Goblin"
        string_val: "Human"
        string_val: "ManBears"
        string_val: "Goblin"
        string_val: "Goblin"
        string_val: "Goblin"
        string_val: "ManBears"
        string_val: "Goblin"
        string_val: "Human"
        string_val: "Human"
        string_val: "ManBears"
        string_val: "Goblin"
        string_val: "Human"
        string_val: "ManBears"
        string_val: "ManBears"
        string_val: "ManBears"
        string_val: "Goblin"
        string_val: "Human"
        string_val: "Human"
        string_val: "ManBears"
        string_val: "ManBears"
        string_val: "ManBears"
        string_val: "ManBears"
        string_val: "ManBears"
        string_val: "ManBears"
        string_val: "Human"
        string_val: "Goblin"
        string_val: "ManBears"
        string_val: "Human"
        string_val: "ManBears"
        string_val: "Goblin"
        string_val: "Goblin"
        string_val: "Human"
        string_val: "Human"
        string_val: "ManBears"
        string_val: "ManBears"
        string_val: "Human"
        string_val: "Human"
        string_val: "Goblin"
        string_val: "Goblin"
        string_val: "Human"
        string_val: "Goblin"
        string_val: "Goblin"
        string_val: "Goblin"
        string_val: "ManBears"
        string_val: "Goblin"
        string_val: "Human"
        string_val: "Human"
        string_val: "ManBears"
        string_val: "Human"
        string_val: "Goblin"
        string_val: "ManBears"
        string_val: "Human"
        string_val: "Goblin"
        string_val: "Goblin"
        string_val: "Human"
        string_val: "Human"
        string_val: "ManBears"
        string_val: "Human"
        string_val: "Human"
        string_val: "ManBears"
        string_val: "Human"
        string_val: "Human"
        string_val: "ManBears"
        string_val: "Goblin"
        string_val: "ManBears"
        string_val: "Human"
        string_val: "Human"
        string_val: "Human"
        string_val: "Human"
        string_val: "ManBears"
        string_val: "ManBears"
        string_val: "Goblin"
        string_val: "Goblin"
        string_val: "Goblin"
        string_val: "Goblin"
        string_val: "Human"
        string_val: "Human"
        string_val: "ManBears"
        string_val: "Human"
        string_val: "Goblin"
        string_val: "ManBears"
        string_val: "Human"
        string_val: "Goblin"
        string_val: "Human"
        string_val: "Goblin"
        string_val: "Goblin"
        string_val: "ManBears"
        string_val: "Goblin"
        string_val: "Goblin"
        string_val: "Goblin"
        string_val: "Goblin"
        string_val: "ManBears"
        string_val: "Human"
        string_val: "Human"
        string_val: "Human"
        string_val: "Human"
        string_val: "Human"
        string_val: "Goblin"
        string_val: "ManBears"
        string_val: "Goblin"
        string_val: "ManBears"
        string_val: "Human"
        string_val: "ManBears"
        string_val: "Goblin"
        string_val: "Human"
        string_val: "Human"
        string_val: "Goblin"
        string_val: "Goblin"
        string_val: "Goblin"
        string_val: "Human"
        string_val: "Goblin"
        string_val: "Goblin"
        string_val: "ManBears"
        string_val: "Goblin"
        string_val: "Goblin"
        string_val: "Human"
        string_val: "Goblin"
        string_val: "ManBears"
        string_val: "Human"
        string_val: "Goblin"
        string_val: "ManBears"
        string_val: "Human"
        string_val: "ManBears"
        string_val: "Goblin"
        string_val: "Human"
        string_val: "Human"
        string_val: "Goblin"
        string_val: "Human"
        string_val: "Human"
        string_val: "ManBears"
        string_val: "Goblin"
        string_val: "Human"
        string_val: "Human"
        string_val: "Goblin"
        string_val: "Human"
        string_val: "Human"
        string_val: "Human"
        string_val: "Human"
        string_val: "Human"
        string_val: "Human"
        string_val: "ManBears"
        string_val: "Goblin"
        string_val: "ManBears"
        string_val: "ManBears"
        string_val: "Human"
        string_val: "Goblin"
        string_val: "Human"
        string_val: "ManBears"
        string_val: "ManBears"
        string_val: "Human"
        string_val: "ManBears"
        string_val: "ManBears"
        string_val: "ManBears"
        string_val: "Human"
        string_val: "Human"
        string_val: "ManBears"
        string_val: "ManBears"
        string_val: "Human"
        string_val: "Goblin"
        string_val: "Goblin"
        string_val: "ManBears"
        string_val: "Goblin"
        string_val: "Goblin"
        string_val: "ManBears"
        string_val: "Human"
        string_val: "ManBears"
        string_val: "Human"
        string_val: "ManBears"
        string_val: "Goblin"
        string_val: "ManBears"
        string_val: "ManBears"
        string_val: "Human"
        string_val: "Human"
        string_val: "Goblin"
        string_val: "Human"
        string_val: "Human"
        string_val: "ManBears"
        string_val: "ManBears"
        string_val: "Goblin"
        string_val: "Goblin"
        string_val: "Human"
        string_val: "ManBears"
        string_val: "ManBears"
        string_val: "Goblin"
        string_val: "Goblin"
        string_val: "Goblin"
        string_val: "Human"
        string_val: "Goblin"
        string_val: "ManBears"
        string_val: "Human"
        string_val: "Goblin"
        string_val: "Human"
        string_val: "Human"
        string_val: "Human"
        string_val: "Human"
        string_val: "Human"
        string_val: "Human"
        string_val: "Goblin"
        string_val: "Human"
        string_val: "ManBears"
        string_val: "Human"
        string_val: "ManBears"
        string_val: "Goblin"
        string_val: "Goblin"
        string_val: "ManBears"
        string_val: "ManBears"
        string_val: "Human"
        string_val: "Human"
        string_val: "ManBears"
        string_val: "ManBears"
        string_val: "Human"
        string_val: "Human"
        string_val: "ManBears"
        string_val: "Human"
        string_val: "Goblin"
        string_val: "ManBears"
        string_val: "Human"
        string_val: "Goblin"
        string_val: "ManBears"
        string_val: "ManBears"
        string_val: "Goblin"
        string_val: "Human"
        string_val: "Goblin"
        string_val: "ManBears"
        string_val: "ManBears"
        string_val: "Goblin"
        string_val: "Human"
        string_val: "Human"
        string_val: "Goblin"
        string_val: "ManBears"
        string_val: "Human"
        string_val: "Human"
        string_val: "Goblin"
        string_val: "Goblin"
        string_val: "Human"
        string_val: "Goblin"
        string_val: "Human"
        string_val: "ManBears"
        string_val: "Goblin"
        string_val: "Human"
        string_val: "Goblin"
        string_val: "ManBears"
        string_val: "ManBears"
        string_val: "Goblin"
        string_val: "Goblin"
        string_val: "Human"
        string_val: "Goblin"
        string_val: "Human"
        string_val: "ManBears"
        string_val: "ManBears"
        string_val: "Human"
        string_val: "ManBears"
        string_val: "Goblin"
        string_val: "ManBears"
        string_val: "Goblin"
        string_val: "ManBears"
        string_val: "Human"
        string_val: "Goblin"
        string_val: "Human"
        string_val: "ManBears"
        string_val: "ManBears"
        string_val: "Goblin"
        string_val: "Goblin"
        string_val: "Human"
        string_val: "Goblin"
        string_val: "Human"
        string_val: "Goblin"
        string_val: "Goblin"
        string_val: "ManBears"
        string_val: "Goblin"
        string_val: "Human"
        string_val: "ManBears"
        string_val: "ManBears"
        string_val: "ManBears"
        string_val: "ManBears"
        string_val: "Human"
        string_val: "Human"
        string_val: "Goblin"
        string_val: "Goblin"
        string_val: "Human"
        string_val: "Goblin"
        string_val: "Goblin"
        string_val: "Human"
        string_val: "Human"
        string_val: "Goblin"
        string_val: "Human"
        string_val: "Human"
        string_val: "Goblin"
        string_val: "ManBears"
        string_val: "Human"
        string_val: "ManBears"
        string_val: "Human"
        string_val: "ManBears"
        string_val: "Goblin"
        string_val: "Human"
        string_val: "ManBears"
        string_val: "ManBears"
        string_val: "Goblin"
        string_val: "Goblin"
        string_val: "ManBears"
        string_val: "Goblin"
        string_val: "Human"
        string_val: "Human"
        string_val: "Goblin"
        string_val: "Human"
        string_val: "Goblin"
        string_val: "Goblin"
        string_val: "Goblin"
        string_val: "Human"
        string_val: "Goblin"
        string_val: "ManBears"
        string_val: "Human"
        string_val: "ManBears"
        string_val: "Goblin"
        string_val: "Goblin"
        string_val: "Human"
        string_val: "ManBears"
        string_val: "Goblin"
        string_val: "Goblin"
        string_val: "Goblin"
        string_val: "Human"
        string_val: "ManBears"
        string_val: "Human"
        string_val: "ManBears"
        string_val: "Human"
        string_val: "Human"
        string_val: "Human"
        string_val: "ManBears"
        string_val: "ManBears"
        string_val: "ManBears"
        string_val: "ManBears"
        string_val: "Human"
        string_val: "Goblin"
        string_val: "ManBears"
        string_val: "Human"
        string_val: "Human"
        string_val: "ManBears"
        string_val: "Goblin"
        string_val: "Human"
        string_val: "ManBears"
        string_val: "Goblin"
        string_val: "ManBears"
        string_val: "Human"
        string_val: "Goblin"
        string_val: "Human"
        string_val: "Human"
        string_val: "Human"
        string_val: "Goblin"
        string_val: "Human"
        string_val: "Human"
        string_val: "ManBears"
        string_val: "Goblin"
        string_val: "Human"
        string_val: "Goblin"
        string_val: "Human"
        string_val: "Goblin"
        string_val: "Goblin"
        string_val: "Goblin"
        string_val: "Goblin"
        string_val: "Goblin"
        string_val: "Human"
        string_val: "ManBears"
        string_val: "ManBears"
        string_val: "Goblin"
        string_val: "Human"
        string_val: "Human"
        string_val: "ManBears"
        string_val: "Goblin"
        string_val: "ManBears"
        string_val: "Goblin"
        string_val: "Human"
        string_val: "ManBears"
        string_val: "Human"
        string_val: "ManBears"
        string_val: "Goblin"
        string_val: "Human"
        string_val: "Goblin"
        string_val: "ManBears"
        string_val: "ManBears"
        string_val: "ManBears"
        string_val: "Human"
        string_val: "Goblin"
        string_val: "Human"
        string_val: "ManBears"
        string_val: "Human"
        string_val: "ManBears"
        string_val: "Human"
        string_val: "ManBears"
        string_val: "Goblin"
        string_val: "Human"
        string_val: "ManBears"
        string_val: "Human"
        string_val: "Human"
        string_val: "Goblin"
        string_val: "Human"
        string_val: "ManBears"
        string_val: "Goblin"
        string_val: "ManBears"
        string_val: "Goblin"
        string_val: "Goblin"
        string_val: "Human"
        string_val: "Human"
        string_val: "Human"
        string_val: "ManBears"
        string_val: "Human"
        string_val: "ManBears"
        string_val: "Goblin"
        string_val: "Human"
        string_val: "ManBears"
        string_val: "Human"
        string_val: "ManBears"
        string_val: "Human"
        string_val: "Human"
        string_val: "Goblin"
        string_val: "Human"
        string_val: "Human"
        string_val: "Goblin"
        string_val: "ManBears"
        string_val: "Goblin"
        string_val: "ManBears"
        string_val: "Human"
        string_val: "Goblin"
        string_val: "Goblin"
        string_val: "Human"
        string_val: "Goblin"
        string_val: "Human"
        string_val: "Human"
        string_val: "Goblin"
        string_val: "Goblin"
        string_val: "Goblin"
        string_val: "Human"
        string_val: "Goblin"
        string_val: "ManBears"
        string_val: "Goblin"
        string_val: "Goblin"
        string_val: "Human"
        string_val: "Goblin"
        string_val: "ManBears"
        string_val: "Human"
        string_val: "ManBears"
        string_val: "Goblin"
        string_val: "ManBears"
        string_val: "ManBears"
        string_val: "ManBears"
        string_val: "Human"
        string_val: "ManBears"
        string_val: "Human"
        string_val: "Goblin"
        string_val: "Human"
        string_val: "ManBears"
        string_val: "Human"
        string_val: "ManBears"
        string_val: "Human"
        string_val: "Goblin"
        string_val: "ManBears"
        string_val: "ManBears"
        string_val: "Goblin"
        string_val: "Human"
        string_val: "Human"
        string_val: "Goblin"
        string_val: "Human"
        string_val: "Human"
        string_val: "Goblin"
        string_val: "Human"
        string_val: "Human"
        string_val: "Goblin"
        string_val: "Goblin"
        string_val: "ManBears"
        string_val: "Goblin"
        string_val: "Human"
        string_val: "Goblin"
        string_val: "Goblin"
        string_val: "ManBears"
        string_val: "ManBears"
        string_val: "Human"
        string_val: "Human"
        string_val: "ManBears"
        string_val: "Human"
        string_val: "Human"
        string_val: "Goblin"
        string_val: "Human"
        string_val: "ManBears"
        string_val: "Human"
        string_val: "Human"
        string_val: "ManBears"
        string_val: "Human"
        string_val: "Human"
        string_val: "Goblin"
        string_val: "Human"
        string_val: "Goblin"
        string_val: "Human"
        string_val: "Human"
        string_val: "ManBears"
        string_val: "Goblin"
        string_val: "ManBears"
        string_val: "Human"
        string_val: "Goblin"
        string_val: "Goblin"
        string_val: "Goblin"
        string_val: "ManBears"
        string_val: "Goblin"
        string_val: "ManBears"
        string_val: "Human"
        string_val: "Human"
        string_val: "Human"
        string_val: "Goblin"
        string_val: "ManBears"
        string_val: "Human"
        string_val: "ManBears"
        string_val: "ManBears"
        string_val: "ManBears"
        string_val: "ManBears"
        string_val: "ManBears"
        string_val: "ManBears"
        string_val: "Human"
        string_val: "Human"
        string_val: "Goblin"
        string_val: "ManBears"
        string_val: "ManBears"
        string_val: "ManBears"
        string_val: "Goblin"
        string_val: "Goblin"
        string_val: "Human"
        string_val: "ManBears"
        string_val: "Goblin"
        string_val: "Human"
        string_val: "ManBears"
        string_val: "Goblin"
        string_val: "ManBears"
        string_val: "Goblin"
        string_val: "Goblin"
        string_val: "ManBears"
        string_val: "Goblin"
        string_val: "Human"
        string_val: "ManBears"
        string_val: "Goblin"
        string_val: "Goblin"
        string_val: "ManBears"
        string_val: "ManBears"
        string_val: "Goblin"
        string_val: "ManBears"
        string_val: "ManBears"
        string_val: "ManBears"
        string_val: "Human"
        string_val: "Goblin"
        string_val: "ManBears"
        string_val: "ManBears"
        string_val: "Human"
        string_val: "ManBears"
        string_val: "Goblin"
        string_val: "Human"
        string_val: "ManBears"
        string_val: "ManBears"
        string_val: "Goblin"
        string_val: "Goblin"
        string_val: "Human"
        string_val: "ManBears"
        string_val: "Human"
        string_val: "ManBears"
        string_val: "Human"
        string_val: "Human"
        string_val: "Human"
        string_val: "Goblin"
        string_val: "ManBears"
        string_val: "ManBears"
        string_val: "Human"
        string_val: "Human"
        string_val: "ManBears"
        string_val: "Human"
        string_val: "Goblin"
        string_val: "ManBears"
        string_val: "Human"
        string_val: "Human"
        string_val: "Goblin"
        string_val: "ManBears"
        string_val: "Goblin"
        string_val: "ManBears"
        string_val: "Human"
        string_val: "Goblin"
        string_val: "ManBears"
        string_val: "Goblin"
        string_val: "ManBears"
        string_val: "Human"
        string_val: "ManBears"
        string_val: "ManBears"
        string_val: "Human"
        string_val: "Human"
        string_val: "Goblin"
        string_val: "Human"
        string_val: "ManBears"
        string_val: "Human"
        string_val: "Human"
        string_val: "Human"
        string_val: "Goblin"
        string_val: "ManBears"
        string_val: "Human"
        string_val: "Goblin"
        string_val: "Goblin"
        string_val: "Goblin"
        string_val: "Human"
        string_val: "ManBears"
        string_val: "Goblin"
        string_val: "Human"
        string_val: "ManBears"
        string_val: "ManBears"
        string_val: "Goblin"
        string_val: "Human"
        string_val: "Goblin"
        string_val: "Goblin"
        string_val: "Human"
        string_val: "Human"
        string_val: "Human"
        string_val: "Human"
        string_val: "ManBears"
        string_val: "Human"
        string_val: "Human"
        string_val: "ManBears"
        string_val: "Goblin"
        string_val: "ManBears"
        string_val: "Human"
        string_val: "Human"
        string_val: "Goblin"
        string_val: "Human"
        string_val: "Human"
        string_val: "Goblin"
        string_val: "Human"
        string_val: "ManBears"
        string_val: "Human"
        string_val: "Human"
        string_val: "ManBears"
        string_val: "Human"
        string_val: "Human"
        string_val: "Human"
        string_val: "Goblin"
        string_val: "ManBears"
        string_val: "Goblin"
        string_val: "Goblin"
        string_val: "Goblin"
        string_val: "Human"
        string_val: "Goblin"
        string_val: "ManBears"
        string_val: "Goblin"
        string_val: "Goblin"
        string_val: "ManBears"
        string_val: "ManBears"
        string_val: "ManBears"
        string_val: "Goblin"
        string_val: "ManBears"
        string_val: "Human"
        string_val: "Human"
        string_val: "Human"
        string_val: "Goblin"
        string_val: "Goblin"
        string_val: "Goblin"
        string_val: "Human"
        string_val: "Human"
        string_val: "Human"
        string_val: "Human"
        string_val: "Goblin"
        string_val: "Human"
        string_val: "Goblin"
        string_val: "Human"
        string_val: "Goblin"
        string_val: "Human"
        string_val: "ManBears"
        string_val: "Human"
        string_val: "Goblin"
        string_val: "Goblin"
        string_val: "ManBears"
        string_val: "ManBears"
        string_val: "Human"
        string_val: "Human"
        string_val: "ManBears"
        string_val: "Human"
        string_val: "Goblin"
        string_val: "ManBears"
        string_val: "Human"
        string_val: "ManBears"
        string_val: "Goblin"
        string_val: "Human"
        string_val: "Goblin"
        string_val: "ManBears"
        string_val: "Human"
        string_val: "Goblin"
        string_val: "Human"
        string_val: "Goblin"
        string_val: "Human"
        string_val: "Human"
        string_val: "Goblin"
        string_val: "Goblin"
        string_val: "Human"
        string_val: "Human"
        string_val: "Human"
        string_val: "ManBears"
        string_val: "Human"
        string_val: "ManBears"
        string_val: "ManBears"
        string_val: "Human"
        string_val: "ManBears"
        string_val: "Goblin"
        string_val: "ManBears"
        string_val: "Human"
        string_val: "ManBears"
        string_val: "Goblin"
        string_val: "Goblin"
        string_val: "Human"
        string_val: "Goblin"
        string_val: "Goblin"
        string_val: "Human"
        string_val: "ManBears"
        string_val: "Human"
        string_val: "Human"
        string_val: "ManBears"
        string_val: "Goblin"
        string_val: "Goblin"
        string_val: "Goblin"
        string_val: "Goblin"
        string_val: "Goblin"
        string_val: "Goblin"
        string_val: "Human"
        string_val: "Goblin"
        string_val: "Goblin"
        string_val: "Goblin"
        string_val: "ManBears"
        string_val: "Human"
        string_val: "Human"
        string_val: "Human"
        string_val: "Goblin"
        string_val: "ManBears"
        string_val: "ManBears"
        string_val: "ManBears"
        string_val: "Human"
        string_val: "ManBears"
        string_val: "Goblin"
        string_val: "Goblin"
        string_val: "Goblin"
        string_val: "ManBears"
        string_val: "Goblin"
        string_val: "ManBears"
        string_val: "ManBears"
        string_val: "ManBears"
        string_val: "Goblin"
        string_val: "ManBears"
        string_val: "ManBears"
        string_val: "ManBears"
        string_val: "Human"
        string_val: "ManBears"
        string_val: "Goblin"
        string_val: "Human"
        string_val: "ManBears"
        string_val: "Human"
        string_val: "ManBears"
        string_val: "Human"
        string_val: "Human"
        string_val: "ManBears"
        string_val: "Human"
        string_val: "ManBears"
        string_val: "ManBears"
        string_val: "Human"
        string_val: "Goblin"
        string_val: "Human"
        string_val: "Human"
        string_val: "ManBears"
        string_val: "Goblin"
        string_val: "ManBears"
        string_val: "Goblin"
        string_val: "Human"
        string_val: "ManBears"
        string_val: "ManBears"
        string_val: "ManBears"
        string_val: "Human"
        string_val: "Human"
        string_val: "Goblin"
        string_val: "ManBears"
        string_val: "Goblin"
        string_val: "Goblin"
        string_val: "Human"
        string_val: "Goblin"
        string_val: "Human"
        string_val: "ManBears"
        string_val: "Human"
        string_val: "Goblin"
        string_val: "Goblin"
        string_val: "ManBears"
        string_val: "ManBears"
        string_val: "ManBears"
        string_val: "Human"
        string_val: "ManBears"
        string_val: "ManBears"
        string_val: "Human"
        string_val: "Human"
        string_val: "Human"
        string_val: "Human"
        string_val: "Goblin"
        string_val: "Goblin"
        string_val: "ManBears"
        string_val: "Human"
        string_val: "Goblin"
        string_val: "Human"
        string_val: "ManBears"
        string_val: "Human"
        string_val: "Human"
        string_val: "Goblin"
        string_val: "Human"
        string_val: "ManBears"
        string_val: "ManBears"
        string_val: "Human"
        string_val: "Goblin"
        string_val: "ManBears"
        string_val: "Human"
        string_val: "Goblin"
        string_val: "ManBears"
        string_val: "ManBears"
        string_val: "Goblin"
        string_val: "ManBears"
        string_val: "ManBears"
        string_val: "Human"
        string_val: "ManBears"
        string_val: "ManBears"
        string_val: "Goblin"
        string_val: "Human"
        string_val: "Goblin"
        string_val: "ManBears"
        string_val: "ManBears"
        string_val: "ManBears"
        string_val: "Goblin"
        string_val: "ManBears"
        string_val: "ManBears"
        string_val: "Human"
        string_val: "ManBears"
        string_val: "Human"
        string_val: "ManBears"
        string_val: "ManBears"
        string_val: "ManBears"
        string_val: "Human"
        string_val: "Goblin"
        string_val: "Goblin"
        string_val: "Human"
        string_val: "Human"
        string_val: "Human"
        string_val: "Human"
        string_val: "Goblin"
        string_val: "Goblin"
        string_val: "ManBears"
        string_val: "Human"
        string_val: "Human"
        string_val: "Human"
        string_val: "ManBears"
        string_val: "Goblin"
        string_val: "ManBears"
        string_val: "Human"
        string_val: "Goblin"
        string_val: "Human"
        string_val: "Goblin"
        string_val: "Human"
        string_val: "Goblin"
        string_val: "ManBears"
        string_val: "Human"
        string_val: "ManBears"
        string_val: "Goblin"
        string_val: "Human"
        string_val: "ManBears"
        string_val: "Human"
        string_val: "ManBears"
        string_val: "ManBears"
        string_val: "ManBears"
        string_val: "ManBears"
        string_val: "ManBears"
        string_val: "Goblin"
        string_val: "Human"
        string_val: "ManBears"
        string_val: "Human"
        string_val: "Goblin"
        string_val: "Human"
        string_val: "Goblin"
        string_val: "Goblin"
        string_val: "Human"
        string_val: "Human"
        string_val: "ManBears"
        string_val: "ManBears"
        string_val: "Goblin"
        string_val: "Goblin"
        string_val: "Goblin"
        string_val: "Human"
        string_val: "Human"
        string_val: "Human"
        string_val: "Human"
        string_val: "Goblin"
        string_val: "Goblin"
        string_val: "ManBears"
        string_val: "Goblin"
        string_val: "ManBears"
        string_val: "ManBears"
        string_val: "Goblin"
        string_val: "Goblin"
        string_val: "ManBears"
        string_val: "Goblin"
        string_val: "Goblin"
        string_val: "Human"
        string_val: "Goblin"
        string_val: "Goblin"
        string_val: "ManBears"
        string_val: "Human"
        string_val: "Goblin"
        string_val: "ManBears"
        string_val: "Goblin"
        string_val: "ManBears"
        string_val: "Goblin"
        string_val: "ManBears"
        string_val: "Human"
        string_val: "Goblin"
        string_val: "Goblin"
        string_val: "Human"
        string_val: "Goblin"
        string_val: "Goblin"
        string_val: "Goblin"
        string_val: "Goblin"
        string_val: "Human"
        string_val: "ManBears"
        string_val: "Goblin"
        string_val: "Human"
        string_val: "ManBears"
        string_val: "ManBears"
        string_val: "ManBears"
        string_val: "Goblin"
        string_val: "Goblin"
        string_val: "Human"
        string_val: "ManBears"
        string_val: "Goblin"
        string_val: "Goblin"
        string_val: "Goblin"
        string_val: "Human"
        string_val: "Human"
        string_val: "ManBears"
        string_val: "Goblin"
        string_val: "Goblin"
        string_val: "ManBears"
        string_val: "Human"
        string_val: "Goblin"
        string_val: "Human"
        string_val: "ManBears"
        string_val: "Goblin"
        string_val: "Human"
        string_val: "Goblin"
        string_val: "Goblin"
        string_val: "Human"
        string_val: "Goblin"
        string_val: "ManBears"
        string_val: "Human"
        string_val: "Goblin"
        string_val: "Goblin"
        string_val: "ManBears"
        string_val: "ManBears"
        string_val: "Human"
        string_val: "Goblin"
        string_val: "Human"
        string_val: "Goblin"
        string_val: "Goblin"
        string_val: "ManBears"
        string_val: "ManBears"
        string_val: "Goblin"
        string_val: "ManBears"
        string_val: "Goblin"
        string_val: "ManBears"
        string_val: "ManBears"
        string_val: "Human"
        string_val: "ManBears"
        string_val: "ManBears"
        string_val: "Goblin"
        string_val: "ManBears"
        string_val: "ManBears"
        string_val: "Goblin"
        string_val: "Goblin"
        string_val: "Human"
        string_val: "Human"
        string_val: "Human"
        string_val: "Human"
        string_val: "Human"
        string_val: "ManBears"
        string_val: "Human"
        string_val: "Human"
        string_val: "ManBears"
        string_val: "Human"
        string_val: "Human"
        string_val: "Human"
        string_val: "Human"
        string_val: "Goblin"
        string_val: "Goblin"
        string_val: "ManBears"
        string_val: "Human"
        string_val: "Human"
        string_val: "Goblin"
        string_val: "Human"
        string_val: "ManBears"
        string_val: "ManBears"
        string_val: "Goblin"
        string_val: "Human"
        string_val: "ManBears"
        string_val: "Human"
        string_val: "ManBears"
        string_val: "Goblin"
        string_val: "Goblin"
        string_val: "Human"
        string_val: "ManBears"
        string_val: "ManBears"
        string_val: "Human"
        string_val: "ManBears"
        string_val: "Human"
        string_val: "ManBears"
        string_val: "Human"
        string_val: "ManBears"
        string_val: "Human"
        string_val: "Human"
        string_val: "ManBears"
        string_val: "Goblin"
        string_val: "ManBears"
        string_val: "Goblin"
        string_val: "Goblin"
        string_val: "Goblin"
        string_val: "Goblin"
        string_val: "Human"
        string_val: "Human"
        string_val: "Goblin"
        string_val: "Goblin"
        string_val: "Human"
        string_val: "Goblin"
        string_val: "ManBears"
        string_val: "Human"
        string_val: "ManBears"
        string_val: "Human"
        string_val: "Human"
        string_val: "Human"
        string_val: "Human"
        string_val: "ManBears"
        string_val: "Human"
        string_val: "ManBears"
        string_val: "ManBears"
        string_val: "ManBears"
        string_val: "Goblin"
        string_val: "ManBears"
        string_val: "Goblin"
        string_val: "ManBears"
        string_val: "Human"
        string_val: "Goblin"
        string_val: "Goblin"
        string_val: "Human"
        string_val: "Human"
        string_val: "Human"
        string_val: "ManBears"
        string_val: "ManBears"
        string_val: "Goblin"
        string_val: "Human"
        string_val: "Human"
        string_val: "Goblin"
        string_val: "Goblin"
        string_val: "Human"
        string_val: "ManBears"
        string_val: "ManBears"
        string_val: "ManBears"
        string_val: "Human"
        string_val: "ManBears"
        string_val: "Goblin"
        string_val: "Human"
        string_val: "Goblin"
        string_val: "ManBears"
        string_val: "Goblin"
        string_val: "Human"
        string_val: "ManBears"
        string_val: "ManBears"
        string_val: "ManBears"
        string_val: "Goblin"
        string_val: "Goblin"
        string_val: "Goblin"
        string_val: "Human"
        string_val: "Human"
        string_val: "Goblin"
        string_val: "ManBears"
        string_val: "Goblin"
        string_val: "Goblin"
        string_val: "ManBears"
        string_val: "ManBears"
        string_val: "Human"
        string_val: "ManBears"
        string_val: "Human"
        string_val: "ManBears"
        string_val: "Human"
        string_val: "Human"
        string_val: "Human"
        string_val: "ManBears"
        string_val: "ManBears"
        string_val: "Human"
        string_val: "ManBears"
        string_val: "Human"
        string_val: "Human"
        string_val: "Goblin"
        string_val: "Goblin"
        string_val: "Goblin"
        string_val: "Goblin"
        string_val: "ManBears"
        string_val: "Goblin"
        string_val: "Goblin"
        string_val: "Human"
        string_val: "Goblin"
        string_val: "Goblin"
        string_val: "Human"
        string_val: "Goblin"
        string_val: "ManBears"
        string_val: "Human"
        string_val: "Human"
        string_val: "Human"
        string_val: "Human"
        string_val: "Goblin"
        string_val: "ManBears"
        string_val: "ManBears"
        string_val: "Goblin"
        string_val: "Human"
        string_val: "Goblin"
        string_val: "Goblin"
        string_val: "ManBears"
        string_val: "ManBears"
        string_val: "Human"
        string_val: "Human"
        string_val: "ManBears"
        string_val: "ManBears"
        string_val: "Human"
        string_val: "ManBears"
        string_val: "ManBears"
        string_val: "Goblin"
        string_val: "Human"
        string_val: "ManBears"
        string_val: "ManBears"
        string_val: "Goblin"
        string_val: "Human"
        string_val: "Goblin"
        string_val: "Human"
        string_val: "ManBears"
        string_val: "Human"
        string_val: "Goblin"
        string_val: "ManBears"
        string_val: "Goblin"
        string_val: "ManBears"
        string_val: "ManBears"
        string_val: "ManBears"
        string_val: "ManBears"
        string_val: "ManBears"
        string_val: "Goblin"
        string_val: "ManBears"
        string_val: "Goblin"
        string_val: "Human"
        string_val: "Goblin"
        string_val: "Human"
        string_val: "Goblin"
        string_val: "Human"
        string_val: "Goblin"
        string_val: "Goblin"
        string_val: "Goblin"
        string_val: "ManBears"
        string_val: "Goblin"
        string_val: "ManBears"
        string_val: "Goblin"
        string_val: "Human"
        string_val: "ManBears"
        string_val: "ManBears"
        string_val: "Human"
        string_val: "Goblin"
        string_val: "Human"
        string_val: "ManBears"
        string_val: "Human"
        string_val: "Human"
        string_val: "ManBears"
        string_val: "ManBears"
        string_val: "Human"
        string_val: "ManBears"
        string_val: "Goblin"
        string_val: "Human"
        string_val: "Human"
        string_val: "ManBears"
        string_val: "Goblin"
        string_val: "Human"
        string_val: "ManBears"
        string_val: "Human"
        string_val: "Human"
        string_val: "ManBears"
        string_val: "Human"
        string_val: "ManBears"
        string_val: "ManBears"
        string_val: "Goblin"
        string_val: "ManBears"
        string_val: "Human"
        string_val: "Human"
        string_val: "ManBears"
        string_val: "Human"
        string_val: "Goblin"
        string_val: "Human"
        string_val: "Human"
        string_val: "ManBears"
        string_val: "ManBears"
        string_val: "Goblin"
        string_val: "Goblin"
        string_val: "Human"
        string_val: "ManBears"
        string_val: "Human"
        string_val: "ManBears"
        string_val: "ManBears"
        string_val: "ManBears"
        string_val: "Goblin"
        string_val: "Human"
        string_val: "Goblin"
        string_val: "ManBears"
        string_val: "Goblin"
        string_val: "Human"
        string_val: "Human"
        string_val: "Goblin"
        string_val: "ManBears"
        string_val: "Human"
        string_val: "Goblin"
        string_val: "ManBears"
        string_val: "Goblin"
        string_val: "ManBears"
        string_val: "Human"
        string_val: "Human"
        string_val: "Goblin"
        string_val: "ManBears"
        string_val: "Goblin"
        string_val: "Human"
        string_val: "Human"
        string_val: "ManBears"
        string_val: "ManBears"
        string_val: "Goblin"
        string_val: "Goblin"
        string_val: "ManBears"
        string_val: "Goblin"
        string_val: "Goblin"
        string_val: "Goblin"
        string_val: "ManBears"
        string_val: "Human"
        string_val: "Goblin"
        string_val: "ManBears"
        string_val: "ManBears"
        string_val: "Goblin"
        string_val: "ManBears"
        string_val: "Goblin"
        string_val: "Human"
        string_val: "Human"
        string_val: "Human"
        string_val: "ManBears"
        string_val: "ManBears"
        string_val: "ManBears"
        string_val: "ManBears"
        string_val: "Human"
        string_val: "ManBears"
        string_val: "Human"
        string_val: "Human"
        string_val: "Goblin"
        string_val: "ManBears"
        string_val: "Human"
        string_val: "Goblin"
        string_val: "ManBears"
        string_val: "Human"
        string_val: "Human"
        string_val: "Goblin"
        string_val: "Human"
        string_val: "Human"
        string_val: "Goblin"
        string_val: "ManBears"
        string_val: "Human"
        string_val: "ManBears"
        string_val: "Goblin"
        string_val: "Goblin"
        string_val: "ManBears"
        string_val: "ManBears"
        string_val: "Human"
        string_val: "Goblin"
        string_val: "Goblin"
        string_val: "ManBears"
        string_val: "Goblin"
        string_val: "ManBears"
        string_val: "ManBears"
        string_val: "Human"
        string_val: "Human"
        string_val: "ManBears"
        string_val: "Human"
        string_val: "Human"
        string_val: "ManBears"
        string_val: "ManBears"
        string_val: "ManBears"
        string_val: "ManBears"
        string_val: "ManBears"
        string_val: "ManBears"
        string_val: "Goblin"
        string_val: "ManBears"
        string_val: "ManBears"
        string_val: "Human"
        string_val: "ManBears"
        string_val: "ManBears"
        string_val: "Human"
        string_val: "Human"
        string_val: "Human"
        string_val: "Human"
        string_val: "Human"
        string_val: "ManBears"
        string_val: "Goblin"
        string_val: "ManBears"
        string_val: "Goblin"
        string_val: "Human"
        string_val: "Human"
        string_val: "ManBears"
        string_val: "ManBears"
        string_val: "Human"
        string_val: "ManBears"
        string_val: "Goblin"
        string_val: "Goblin"
        string_val: "Human"
        string_val: "Human"
        string_val: "Human"
        string_val: "Goblin"
        string_val: "Human"
        string_val: "Goblin"
        string_val: "Goblin"
        string_val: "Human"
        string_val: "Goblin"
        string_val: "Goblin"
        string_val: "Goblin"
        string_val: "Human"
        string_val: "Goblin"
        string_val: "Human"
        string_val: "Goblin"
        string_val: "Human"
        string_val: "Human"
        string_val: "ManBears"
        string_val: "ManBears"
        string_val: "ManBears"
        string_val: "Goblin"
        string_val: "Human"
        string_val: "ManBears"
        string_val: "Goblin"
        string_val: "Human"
        string_val: "Goblin"
        string_val: "ManBears"
        string_val: "Human"
        string_val: "Goblin"
        string_val: "Goblin"
        string_val: "ManBears"
        string_val: "Human"
        string_val: "Human"
        string_val: "ManBears"
        string_val: "Goblin"
        string_val: "Goblin"
        string_val: "Goblin"
        string_val: "Goblin"
        string_val: "Human"
        string_val: "Goblin"
        string_val: "Human"
        string_val: "ManBears"
        string_val: "Goblin"
        string_val: "Goblin"
        string_val: "Human"
        string_val: "Human"
        string_val: "ManBears"
        string_val: "Goblin"
        string_val: "Human"
        string_val: "Goblin"
        string_val: "Human"
        string_val: "Goblin"
        string_val: "ManBears"
        string_val: "Goblin"
        string_val: "ManBears"
        string_val: "Human"
        string_val: "Human"
        string_val: "Goblin"
        string_val: "Human"
        string_val: "ManBears"
        string_val: "ManBears"
        string_val: "ManBears"
        string_val: "Human"
        string_val: "ManBears"
        string_val: "Human"
        string_val: "ManBears"
        string_val: "Human"
        string_val: "Goblin"
        string_val: "ManBears"
        string_val: "Goblin"
        string_val: "ManBears"
        string_val: "Goblin"
        string_val: "Human"
        string_val: "Human"
        string_val: "Goblin"
        string_val: "Human"
        string_val: "Goblin"
        string_val: "Goblin"
        string_val: "Human"
        string_val: "Goblin"
        string_val: "Human"
        string_val: "ManBears"
        string_val: "Goblin"
        string_val: "Goblin"
        string_val: "Goblin"
        string_val: "ManBears"
        string_val: "Goblin"
        string_val: "ManBears"
        string_val: "Goblin"
        string_val: "Human"
        string_val: "ManBears"
        string_val: "ManBears"
        string_val: "ManBears"
        string_val: "ManBears"
        string_val: "Goblin"
        string_val: "Human"
        string_val: "ManBears"
        string_val: "Human"
        string_val: "Human"
        string_val: "ManBears"
        string_val: "Human"
        string_val: "ManBears"
        string_val: "ManBears"
        string_val: "ManBears"
        string_val: "Human"
        string_val: "Human"
        string_val: "Goblin"
        string_val: "ManBears"
        string_val: "Human"
        string_val: "ManBears"
        string_val: "ManBears"
        string_val: "Human"
        string_val: "Goblin"
        string_val: "Human"
        string_val: "ManBears"
        string_val: "Goblin"
        string_val: "Goblin"
        string_val: "Human"
        string_val: "ManBears"
        string_val: "ManBears"
        string_val: "Goblin"
        string_val: "Human"
        string_val: "ManBears"
        string_val: "Goblin"
        string_val: "Human"
        string_val: "Human"
        string_val: "Human"
        string_val: "Human"
        string_val: "Human"
        string_val: "ManBears"
        string_val: "ManBears"
        string_val: "Human"
        string_val: "Goblin"
        string_val: "Human"
        string_val: "ManBears"
        string_val: "Human"
        string_val: "Human"
        string_val: "Human"
        string_val: "ManBears"
        string_val: "Goblin"
        string_val: "Goblin"
        string_val: "Goblin"
        string_val: "Human"
        string_val: "Human"
        string_val: "Goblin"
        string_val: "ManBears"
        string_val: "Goblin"
        string_val: "ManBears"
        string_val: "ManBears"
        string_val: "ManBears"
        string_val: "Goblin"
        string_val: "Human"
        string_val: "Human"
        string_val: "Goblin"
        string_val: "ManBears"
        string_val: "ManBears"
        string_val: "ManBears"
        string_val: "Goblin"
        string_val: "Human"
        string_val: "Goblin"
        string_val: "ManBears"
        string_val: "ManBears"
        string_val: "Human"
        string_val: "Human"
        string_val: "Human"
        string_val: "Goblin"
        string_val: "Human"
        string_val: "ManBears"
        string_val: "Goblin"
        string_val: "Goblin"
        string_val: "ManBears"
        string_val: "Goblin"
        string_val: "Human"
        string_val: "ManBears"
        string_val: "Human"
        string_val: "Human"
        string_val: "Human"
        string_val: "Human"
        string_val: "Human"
        string_val: "ManBears"
        string_val: "Goblin"
        string_val: "Goblin"
        string_val: "Goblin"
        string_val: "ManBears"
        string_val: "Human"
        string_val: "ManBears"
        string_val: "Human"
        string_val: "Goblin"
        string_val: "ManBears"
        string_val: "Goblin"
        string_val: "Human"
        string_val: "Human"
        string_val: "Human"
        string_val: "ManBears"
        string_val: "Human"
        string_val: "ManBears"
        string_val: "ManBears"
        string_val: "Human"
        string_val: "ManBears"
        string_val: "Human"
        string_val: "Human"
        string_val: "ManBears"
        string_val: "Human"
        string_val: "Goblin"
        string_val: "Goblin"
        string_val: "Human"
        string_val: "ManBears"
        string_val: "Goblin"
        string_val: "ManBears"
        string_val: "Goblin"
        string_val: "Goblin"
        string_val: "Human"
        string_val: "Human"
        string_val: "Goblin"
        string_val: "Human"
        string_val: "Goblin"
        string_val: "Human"
        string_val: "Goblin"
        string_val: "Human"
        string_val: "ManBears"
        string_val: "Goblin"
        string_val: "Goblin"
        string_val: "Goblin"
        string_val: "Human"
        string_val: "Human"
        string_val: "Goblin"
        string_val: "Human"
        string_val: "ManBears"
        string_val: "Goblin"
        string_val: "ManBears"
        string_val: "Goblin"
        string_val: "ManBears"
        string_val: "ManBears"
        string_val: "Human"
        string_val: "ManBears"
        string_val: "Goblin"
        string_val: "ManBears"
        string_val: "Human"
        string_val: "Goblin"
        string_val: "ManBears"
        string_val: "Human"
        string_val: "Human"
        string_val: "Goblin"
        string_val: "Goblin"
        string_val: "ManBears"
        string_val: "Human"
        string_val: "ManBears"
        string_val: "ManBears"
        string_val: "Goblin"
        string_val: "Human"
        string_val: "ManBears"
        string_val: "ManBears"
        string_val: "Goblin"
        string_val: "ManBears"
        string_val: "Human"
        string_val: "Goblin"
        string_val: "Human"
        string_val: "Human"
        string_val: "Human"
        string_val: "Goblin"
        string_val: "Human"
        string_val: "ManBears"
        string_val: "Human"
        string_val: "ManBears"
        string_val: "Human"
        string_val: "ManBears"
        string_val: "ManBears"
        string_val: "Goblin"
        string_val: "Goblin"
        string_val: "ManBears"
        string_val: "Goblin"
        string_val: "Goblin"
        string_val: "Goblin"
        string_val: "Human"
        string_val: "Human"
        string_val: "ManBears"
        string_val: "ManBears"
        string_val: "Goblin"
        string_val: "Human"
        string_val: "ManBears"
        string_val: "Goblin"
        string_val: "Human"
        string_val: "Goblin"
        string_val: "ManBears"
        string_val: "Human"
        string_val: "ManBears"
        string_val: "ManBears"
        string_val: "ManBears"
        string_val: "Human"
        string_val: "ManBears"
        string_val: "ManBears"
        string_val: "ManBears"
        string_val: "Human"
        string_val: "Goblin"
        string_val: "ManBears"
        string_val: "ManBears"
        string_val: "Human"
        string_val: "ManBears"
        string_val: "Goblin"
        string_val: "Human"
        string_val: "Human"
        string_val: "ManBears"
        string_val: "Goblin"
        string_val: "Goblin"
        string_val: "ManBears"
        string_val: "Goblin"
        string_val: "Goblin"
        string_val: "ManBears"
        string_val: "ManBears"
        string_val: "Human"
        string_val: "Human"
        string_val: "ManBears"
        string_val: "ManBears"
        string_val: "Human"
        string_val: "Human"
        string_val: "Goblin"
        string_val: "Goblin"
        string_val: "ManBears"
        string_val: "Human"
        string_val: "Human"
        string_val: "Human"
        string_val: "Human"
        string_val: "Human"
        string_val: "Human"
        string_val: "Human"
        string_val: "ManBears"
        string_val: "ManBears"
        string_val: "Human"
        string_val: "ManBears"
        string_val: "Human"
        string_val: "Goblin"
        string_val: "Human"
        string_val: "ManBears"
        string_val: "ManBears"
        string_val: "ManBears"
        string_val: "ManBears"
        string_val: "Human"
        string_val: "ManBears"
        string_val: "Goblin"
        string_val: "Human"
        string_val: "Human"
        string_val: "Goblin"
        string_val: "ManBears"
        string_val: "ManBears"
        string_val: "ManBears"
        string_val: "Goblin"
        string_val: "Human"
        string_val: "Goblin"
        string_val: "Human"
        string_val: "Goblin"
        string_val: "Goblin"
        string_val: "Human"
        string_val: "Goblin"
        string_val: "Human"
        string_val: "ManBears"
        string_val: "Human"
        string_val: "Human"
        string_val: "Human"
        string_val: "Goblin"
        string_val: "Goblin"
        string_val: "Goblin"
        string_val: "ManBears"
        string_val: "Human"
        string_val: "ManBears"
        string_val: "Goblin"
        string_val: "Goblin"
        string_val: "Goblin"
        string_val: "Human"
        string_val: "Goblin"
        string_val: "Human"
        string_val: "Goblin"
        string_val: "Goblin"
        string_val: "Human"
        string_val: "Human"
        string_val: "ManBears"
        string_val: "Human"
        string_val: "ManBears"
        string_val: "ManBears"
        string_val: "ManBears"
        string_val: "Human"
        string_val: "Human"
        string_val: "Human"
        string_val: "Goblin"
        string_val: "Goblin"
        string_val: "Human"
        string_val: "Human"
        string_val: "Human"
        string_val: "ManBears"
        string_val: "Goblin"
        string_val: "ManBears"
        string_val: "Goblin"
        string_val: "Human"
        string_val: "Goblin"
        string_val: "Human"
        string_val: "ManBears"
        string_val: "ManBears"
        string_val: "ManBears"
        string_val: "Human"
        string_val: "ManBears"
        string_val: "ManBears"
        string_val: "Goblin"
        string_val: "Human"
        string_val: "Human"
        string_val: "ManBears"
        string_val: "ManBears"
        string_val: "Goblin"
        string_val: "Human"
        string_val: "Goblin"
        string_val: "Goblin"
        string_val: "Human"
        string_val: "Goblin"
        string_val: "Human"
        string_val: "ManBears"
        string_val: "ManBears"
        string_val: "Human"
        string_val: "Goblin"
        string_val: "ManBears"
        string_val: "Human"
        string_val: "Goblin"
        string_val: "Goblin"
        string_val: "ManBears"
        string_val: "Goblin"
        string_val: "Human"
        string_val: "Goblin"
        string_val: "ManBears"
        string_val: "Human"
        string_val: "ManBears"
        string_val: "Human"
        string_val: "Human"
        string_val: "Human"
        string_val: "ManBears"
        string_val: "ManBears"
        string_val: "Human"
        string_val: "ManBears"
        string_val: "Human"
        string_val: "ManBears"
        string_val: "ManBears"
        string_val: "Human"
        string_val: "Human"
        string_val: "ManBears"
        string_val: "Goblin"
        string_val: "Human"
        string_val: "Goblin"
        string_val: "ManBears"
        string_val: "Goblin"
        string_val: "ManBears"
        string_val: "ManBears"
        string_val: "ManBears"
        string_val: "Goblin"
        string_val: "Goblin"
        string_val: "Human"
        string_val: "Goblin"
        string_val: "Human"
        string_val: "Goblin"
        string_val: "Human"
        string_val: "ManBears"
        string_val: "ManBears"
        string_val: "ManBears"
        string_val: "Goblin"
        string_val: "Goblin"
        string_val: "ManBears"
        string_val: "Goblin"
        string_val: "Human"
        string_val: "ManBears"
        string_val: "ManBears"
        string_val: "ManBears"
        string_val: "Human"
        string_val: "ManBears"
        string_val: "Goblin"
        string_val: "Human"
        string_val: "Human"
        string_val: "ManBears"
        string_val: "Human"
        string_val: "ManBears"
        string_val: "Goblin"
        string_val: "ManBears"
        string_val: "ManBears"
        string_val: "Goblin"
        string_val: "Goblin"
        string_val: "Goblin"
        string_val: "Goblin"
        string_val: "ManBears"
        string_val: "Goblin"
        string_val: "Goblin"
        string_val: "ManBears"
        string_val: "ManBears"
        string_val: "Goblin"
        string_val: "Human"
        string_val: "ManBears"
        string_val: "Goblin"
        string_val: "Goblin"
        string_val: "Human"
        string_val: "ManBears"
        string_val: "Goblin"
        string_val: "Goblin"
        string_val: "ManBears"
        string_val: "Human"
        string_val: "ManBears"
        string_val: "Human"
        string_val: "Human"
        string_val: "Human"
        string_val: "Goblin"
        string_val: "Human"
        string_val: "Goblin"
        string_val: "Human"
        string_val: "Human"
        string_val: "Goblin"
        string_val: "Human"
        string_val: "Goblin"
        string_val: "Goblin"
        string_val: "Human"
        string_val: "Goblin"
        string_val: "ManBears"
        string_val: "Human"
        string_val: "Human"
        string_val: "Human"
        string_val: "ManBears"
        string_val: "Human"
        string_val: "Goblin"
        string_val: "Human"
        string_val: "ManBears"
        string_val: "Goblin"
        string_val: "ManBears"
        string_val: "ManBears"
        string_val: "ManBears"
        string_val: "ManBears"
        string_val: "Goblin"
        string_val: "Human"
        string_val: "Human"
        string_val: "Human"
        string_val: "Human"
        string_val: "Human"
        string_val: "ManBears"
        string_val: "ManBears"
        string_val: "ManBears"
        string_val: "ManBears"
        string_val: "Human"
        string_val: "Human"
        string_val: "ManBears"
        string_val: "Goblin"
        string_val: "Human"
        string_val: "Goblin"
        string_val: "Goblin"
        string_val: "ManBears"
        string_val: "Goblin"
        string_val: "Human"
        string_val: "Goblin"
        string_val: "Human"
        string_val: "Human"
        string_val: "Human"
        string_val: "ManBears"
        string_val: "Goblin"
        string_val: "ManBears"
        string_val: "Goblin"
        string_val: "ManBears"
        string_val: "Human"
        string_val: "Goblin"
        string_val: "Goblin"
        string_val: "Human"
        string_val: "ManBears"
        string_val: "ManBears"
        string_val: "Human"
        string_val: "Human"
        string_val: "Human"
        string_val: "Human"
        string_val: "ManBears"
        string_val: "Human"
        string_val: "Goblin"
        string_val: "Goblin"
        string_val: "ManBears"
        string_val: "Goblin"
        string_val: "Goblin"
        string_val: "Human"
        string_val: "Human"
        string_val: "Human"
        string_val: "Human"
        string_val: "ManBears"
        string_val: "ManBears"
        string_val: "ManBears"
        string_val: "Human"
        string_val: "ManBears"
        string_val: "ManBears"
        string_val: "Human"
        string_val: "ManBears"
        string_val: "Goblin"
        string_val: "Human"
        string_val: "Human"
        string_val: "Human"
        string_val: "Goblin"
        string_val: "Goblin"
        string_val: "Human"
        string_val: "Goblin"
        string_val: "ManBears"
        string_val: "Human"
        string_val: "ManBears"
        string_val: "Human"
        string_val: "Human"
        string_val: "Goblin"
        string_val: "Goblin"
        string_val: "Human"
        string_val: "Human"
        string_val: "Human"
        string_val: "Goblin"
        string_val: "Goblin"
        string_val: "ManBears"
        string_val: "ManBears"
        string_val: "ManBears"
        string_val: "ManBears"
        string_val: "Human"
        string_val: "ManBears"
        string_val: "Human"
        string_val: "Human"
        string_val: "Human"
        string_val: "Human"
        string_val: "Human"
        string_val: "Goblin"
        string_val: "Human"
        string_val: "Human"
        string_val: "ManBears"
        string_val: "ManBears"
        string_val: "ManBears"
        string_val: "Goblin"
        string_val: "Human"
        string_val: "ManBears"
        string_val: "ManBears"
        string_val: "ManBears"
        string_val: "ManBears"
        string_val: "Goblin"
        string_val: "Goblin"
        string_val: "Human"
        string_val: "Human"
        string_val: "Goblin"
        string_val: "Goblin"
        string_val: "Goblin"
        string_val: "ManBears"
        string_val: "Human"
        string_val: "Human"
        string_val: "Goblin"
        string_val: "ManBears"
        string_val: "ManBears"
        string_val: "Human"
        string_val: "Goblin"
        string_val: "Human"
        string_val: "Goblin"
        string_val: "ManBears"
        string_val: "Human"
        string_val: "Goblin"
        string_val: "Human"
        string_val: "ManBears"
        string_val: "Goblin"
        string_val: "ManBears"
        string_val: "ManBears"
        string_val: "Human"
        string_val: "ManBears"
        string_val: "Human"
        string_val: "Goblin"
        string_val: "ManBears"
        string_val: "ManBears"
        string_val: "ManBears"
        string_val: "Goblin"
        string_val: "Goblin"
        string_val: "ManBears"
        string_val: "Goblin"
        string_val: "Human"
        string_val: "Human"
        string_val: "Human"
        string_val: "Goblin"
        string_val: "Goblin"
        string_val: "ManBears"
        string_val: "ManBears"
        string_val: "ManBears"
        string_val: "ManBears"
        string_val: "Goblin"
        string_val: "Goblin"
        string_val: "ManBears"
        string_val: "ManBears"
        string_val: "ManBears"
        string_val: "Human"
        string_val: "Goblin"
        string_val: "ManBears"
        string_val: "Human"
        string_val: "Goblin"
        string_val: "Human"
        string_val: "Human"
        string_val: "Human"
        string_val: "ManBears"
        string_val: "Goblin"
        string_val: "Goblin"
        string_val: "ManBears"
        string_val: "Goblin"
        string_val: "ManBears"
        string_val: "Goblin"
        string_val: "Goblin"
        string_val: "Goblin"
        string_val: "Human"
        string_val: "Goblin"
        string_val: "Goblin"
        string_val: "Human"
        string_val: "ManBears"
        string_val: "Goblin"
        string_val: "ManBears"
        string_val: "ManBears"
        string_val: "ManBears"
        string_val: "Goblin"
        string_val: "ManBears"
        string_val: "Goblin"
        string_val: "Goblin"
        string_val: "Human"
        string_val: "ManBears"
        string_val: "Goblin"
        string_val: "ManBears"
        string_val: "Human"
        string_val: "Goblin"
        string_val: "ManBears"
        string_val: "Goblin"
        string_val: "ManBears"
        string_val: "Goblin"
        string_val: "Goblin"
        string_val: "Goblin"
        string_val: "Goblin"
        string_val: "Human"
        string_val: "ManBears"
        string_val: "Goblin"
        string_val: "ManBears"
        string_val: "Goblin"
        string_val: "Goblin"
        string_val: "ManBears"
        string_val: "Goblin"
        string_val: "ManBears"
        string_val: "ManBears"
        string_val: "ManBears"
        string_val: "ManBears"
        string_val: "Human"
        string_val: "Goblin"
        string_val: "Human"
        string_val: "Goblin"
        string_val: "Goblin"
        string_val: "ManBears"
        string_val: "Human"
        string_val: "Human"
        string_val: "ManBears"
        string_val: "Goblin"
        string_val: "Human"
        string_val: "Goblin"
        string_val: "Human"
        string_val: "Human"
        string_val: "ManBears"
        string_val: "Goblin"
        string_val: "Goblin"
        string_val: "Goblin"
        string_val: "ManBears"
        string_val: "ManBears"
        string_val: "Goblin"
        string_val: "ManBears"
        string_val: "Goblin"
        string_val: "Human"
        string_val: "Human"
        string_val: "Goblin"
        string_val: "Human"
        string_val: "ManBears"
        string_val: "Human"
        string_val: "Human"
        string_val: "ManBears"
        string_val: "Goblin"
        string_val: "ManBears"
        string_val: "Human"
        string_val: "Goblin"
        string_val: "Human"
        string_val: "ManBears"
        string_val: "Goblin"
        string_val: "Human"
        string_val: "Goblin"
        string_val: "Human"
        string_val: "Human"
        string_val: "Human"
        string_val: "ManBears"
        string_val: "ManBears"
        string_val: "ManBears"
        string_val: "Human"
        string_val: "ManBears"
        string_val: "Goblin"
        string_val: "ManBears"
        string_val: "Human"
        string_val: "Human"
        string_val: "Human"
        string_val: "ManBears"
        string_val: "ManBears"
        string_val: "Goblin"
        string_val: "Human"
        string_val: "ManBears"
        string_val: "Goblin"
        string_val: "Goblin"
        string_val: "ManBears"
        string_val: "Goblin"
        string_val: "Goblin"
        string_val: "Goblin"
        string_val: "Goblin"
        string_val: "Human"
        string_val: "Goblin"
        string_val: "ManBears"
        string_val: "Human"
        string_val: "Goblin"
        string_val: "Goblin"
        string_val: "ManBears"
        string_val: "Human"
        string_val: "Human"
        string_val: "ManBears"
        string_val: "Human"
        string_val: "ManBears"
        string_val: "Goblin"
        string_val: "ManBears"
        string_val: "Goblin"
        string_val: "Human"
        string_val: "Human"
        string_val: "Human"
        string_val: "Goblin"
        string_val: "Human"
        string_val: "Goblin"
        string_val: "ManBears"
        string_val: "Human"
        string_val: "Goblin"
        string_val: "Goblin"
        string_val: "ManBears"
        string_val: "Goblin"
        string_val: "Human"
        string_val: "Human"
        string_val: "ManBears"
        string_val: "ManBears"
        string_val: "Human"
        string_val: "ManBears"
        string_val: "Goblin"
        string_val: "ManBears"
        string_val: "ManBears"
        string_val: "ManBears"
        string_val: "Goblin"
        string_val: "Human"
        string_val: "ManBears"
        string_val: "Goblin"
        string_val: "ManBears"
        string_val: "ManBears"
        string_val: "Human"
        string_val: "ManBears"
        string_val: "Human"
        string_val: "ManBears"
        string_val: "Goblin"
        string_val: "Human"
        string_val: "Human"
        string_val: "Goblin"
        string_val: "Goblin"
        string_val: "Human"
        string_val: "Goblin"
        string_val: "Human"
        string_val: "ManBears"
        string_val: "Human"
        string_val: "Human"
        string_val: "Goblin"
        string_val: "ManBears"
        string_val: "Goblin"
        string_val: "Goblin"
        string_val: "Goblin"
        string_val: "Goblin"
        string_val: "Human"
        string_val: "ManBears"
        string_val: "Human"
        string_val: "Goblin"
        string_val: "Human"
        string_val: "Goblin"
        string_val: "ManBears"
        string_val: "Human"
        string_val: "Goblin"
        string_val: "Human"
        string_val: "ManBears"
        string_val: "Human"
        string_val: "Goblin"
        string_val: "ManBears"
        string_val: "ManBears"
        string_val: "Human"
        string_val: "Goblin"
        string_val: "Goblin"
        string_val: "Goblin"
        string_val: "Human"
        string_val: "Human"
        string_val: "ManBears"
        string_val: "ManBears"
        string_val: "ManBears"
        string_val: "Goblin"
        string_val: "Goblin"
        string_val: "Human"
        string_val: "Human"
        string_val: "Human"
        string_val: "Human"
        string_val: "Human"
        string_val: "Goblin"
        string_val: "Human"
        string_val: "Goblin"
        string_val: "Goblin"
        string_val: "Goblin"
        string_val: "Goblin"
        string_val: "Goblin"
        string_val: "ManBears"
        string_val: "Human"
        string_val: "ManBears"
        string_val: "Human"
        string_val: "ManBears"
        string_val: "ManBears"
        string_val: "Human"
        string_val: "Human"
        string_val: "Human"
        string_val: "Goblin"
        string_val: "Human"
        string_val: "Goblin"
        string_val: "ManBears"
        string_val: "Human"
        string_val: "Human"
        string_val: "Goblin"
        string_val: "Goblin"
        string_val: "ManBears"
        string_val: "Goblin"
        string_val: "Goblin"
        string_val: "ManBears"
        string_val: "Human"
        string_val: "ManBears"
        string_val: "ManBears"
        string_val: "ManBears"
        string_val: "Goblin"
        string_val: "Human"
        string_val: "ManBears"
        string_val: "ManBears"
        string_val: "Goblin"
        string_val: "Goblin"
        string_val: "ManBears"
        string_val: "Goblin"
        string_val: "Human"
        string_val: "ManBears"
        string_val: "Goblin"
        string_val: "Human"
        string_val: "Goblin"
        string_val: "ManBears"
        string_val: "Goblin"
        string_val: "Goblin"
        string_val: "ManBears"
        string_val: "Goblin"
        string_val: "ManBears"
        string_val: "Goblin"
        string_val: "Goblin"
        string_val: "ManBears"
        string_val: "Human"
        string_val: "Human"
        string_val: "ManBears"
        string_val: "ManBears"
        string_val: "Goblin"
        string_val: "ManBears"
        string_val: "Goblin"
        string_val: "ManBears"
        string_val: "Goblin"
        string_val: "Human"
        string_val: "Goblin"
        string_val: "Human"
        string_val: "Goblin"
        string_val: "Human"
        string_val: "ManBears"
        string_val: "ManBears"
        string_val: "ManBears"
        string_val: "Human"
        string_val: "Goblin"
        string_val: "ManBears"
        string_val: "Goblin"
        string_val: "Human"
        string_val: "Goblin"
        string_val: "Goblin"
        string_val: "Human"
        string_val: "ManBears"
        string_val: "Goblin"
        string_val: "ManBears"
        string_val: "Goblin"
        string_val: "Human"
        string_val: "Human"
        string_val: "Goblin"
        string_val: "Goblin"
        string_val: "ManBears"
        string_val: "Human"
        string_val: "ManBears"
        string_val: "Human"
        string_val: "Human"
        string_val: "Goblin"
        string_val: "Goblin"
        string_val: "Human"
        string_val: "ManBears"
        string_val: "Human"
        string_val: "Human"
        string_val: "ManBears"
        string_val: "ManBears"
        string_val: "ManBears"
        string_val: "ManBears"
        string_val: "ManBears"
        string_val: "Goblin"
        string_val: "Goblin"
        string_val: "Human"
        string_val: "ManBears"
        string_val: "Human"
        string_val: "ManBears"
        string_val: "Goblin"
        string_val: "ManBears"
        string_val: "Goblin"
        string_val: "Human"
        string_val: "Human"
        string_val: "Human"
        string_val: "ManBears"
        string_val: "ManBears"
        string_val: "ManBears"
        string_val: "Human"
        string_val: "ManBears"
        string_val: "Human"
        string_val: "Human"
        string_val: "Human"
        string_val: "Goblin"
        string_val: "ManBears"
        string_val: "Human"
        string_val: "Goblin"
        string_val: "Human"
        string_val: "Goblin"
        string_val: "Human"
        string_val: "Goblin"
        string_val: "Human"
        string_val: "ManBears"
        string_val: "Goblin"
        string_val: "Goblin"
        string_val: "Human"
        string_val: "Human"
        string_val: "Goblin"
        string_val: "ManBears"
        string_val: "Human"
        string_val: "Human"
        string_val: "ManBears"
        string_val: "ManBears"
        string_val: "ManBears"
        string_val: "Goblin"
        string_val: "Human"
        string_val: "ManBears"
        string_val: "Human"
        string_val: "Goblin"
        string_val: "ManBears"
        string_val: "ManBears"
        string_val: "Human"
        string_val: "Goblin"
        string_val: "ManBears"
        string_val: "ManBears"
        string_val: "Goblin"
        string_val: "Goblin"
        string_val: "ManBears"
        string_val: "ManBears"
        string_val: "Goblin"
        string_val: "Goblin"
        string_val: "Human"
        string_val: "Human"
        string_val: "Goblin"
        string_val: "ManBears"
        string_val: "Goblin"
        string_val: "Goblin"
        string_val: "Human"
        string_val: "ManBears"
        string_val: "Human"
        string_val: "Goblin"
        string_val: "Goblin"
        string_val: "Human"
        string_val: "ManBears"
        string_val: "Human"
        string_val: "Human"
        string_val: "ManBears"
        string_val: "Goblin"
        string_val: "Goblin"
        string_val: "ManBears"
        string_val: "Goblin"
        string_val: "Goblin"
        string_val: "ManBears"
        string_val: "Human"
        string_val: "Human"
        string_val: "Goblin"
        string_val: "Human"
        string_val: "Goblin"
        string_val: "ManBears"
        string_val: "Goblin"
        string_val: "ManBears"
        string_val: "ManBears"
        string_val: "Goblin"
        string_val: "ManBears"
        string_val: "ManBears"
        string_val: "Human"
        string_val: "ManBears"
        string_val: "ManBears"
        string_val: "ManBears"
        string_val: "ManBears"
        string_val: "ManBears"
        string_val: "ManBears"
        string_val: "ManBears"
        string_val: "Goblin"
        string_val: "Goblin"
        string_val: "Human"
        string_val: "Human"
        string_val: "Goblin"
        string_val: "ManBears"
        string_val: "Goblin"
        string_val: "Goblin"
        string_val: "ManBears"
        string_val: "ManBears"
        string_val: "Goblin"
        string_val: "Human"
        string_val: "Goblin"
        string_val: "Human"
        string_val: "ManBears"
        string_val: "Goblin"
        string_val: "ManBears"
        string_val: "Goblin"
        string_val: "Human"
        string_val: "Goblin"
        string_val: "Goblin"
        string_val: "Goblin"
        string_val: "ManBears"
        string_val: "Goblin"
        string_val: "Goblin"
        string_val: "ManBears"
        string_val: "ManBears"
        string_val: "Human"
        string_val: "ManBears"
        string_val: "ManBears"
        string_val: "Goblin"
        string_val: "ManBears"
        string_val: "Goblin"
        string_val: "Human"
        string_val: "Goblin"
        string_val: "Human"
        string_val: "Goblin"
        string_val: "Human"
        string_val: "Goblin"
        string_val: "ManBears"
        string_val: "ManBears"
        string_val: "Human"
        string_val: "Human"
        string_val: "Human"
        string_val: "Goblin"
        string_val: "Human"
        string_val: "Human"
        string_val: "ManBears"
        string_val: "Goblin"
        string_val: "ManBears"
        string_val: "ManBears"
        string_val: "ManBears"
        string_val: "Human"
        string_val: "Human"
        string_val: "ManBears"
        string_val: "ManBears"
        string_val: "Goblin"
        string_val: "Human"
        string_val: "Goblin"
        string_val: "Goblin"
        string_val: "ManBears"
        string_val: "Human"
        string_val: "Human"
        string_val: "Human"
        string_val: "Human"
        string_val: "ManBears"
        string_val: "ManBears"
        string_val: "Human"
        string_val: "Human"
        string_val: "Goblin"
        string_val: "Human"
        string_val: "ManBears"
        string_val: "Human"
        string_val: "ManBears"
        string_val: "ManBears"
        string_val: "ManBears"
        string_val: "Goblin"
        string_val: "ManBears"
        string_val: "Human"
        string_val: "Human"
        string_val: "ManBears"
        string_val: "Goblin"
        string_val: "Human"
        string_val: "Human"
        string_val: "ManBears"
        string_val: "Goblin"
        string_val: "ManBears"
        string_val: "ManBears"
        string_val: "Human"
        string_val: "Human"
        string_val: "ManBears"
        string_val: "ManBears"
        string_val: "ManBears"
        string_val: "Human"
        string_val: "Human"
        string_val: "Goblin"
        string_val: "Goblin"
        string_val: "ManBears"
        string_val: "ManBears"
        string_val: "ManBears"
        string_val: "Goblin"
        string_val: "Goblin"
        string_val: "ManBears"
        string_val: "Human"
        string_val: "Goblin"
        string_val: "ManBears"
        string_val: "Human"
        string_val: "Goblin"
        string_val: "ManBears"
        string_val: "ManBears"
        string_val: "Human"
        string_val: "ManBears"
        string_val: "Human"
        string_val: "Goblin"
        string_val: "Human"
        string_val: "Goblin"
        string_val: "Goblin"
        string_val: "Goblin"
        string_val: "ManBears"
        string_val: "Human"
        string_val: "Goblin"
        string_val: "Goblin"
        string_val: "Human"
        string_val: "Goblin"
        string_val: "Human"
        string_val: "Goblin"
        string_val: "ManBears"
        string_val: "Goblin"
        string_val: "Goblin"
        string_val: "ManBears"
        string_val: "ManBears"
        string_val: "ManBears"
        string_val: "Human"
        string_val: "Goblin"
        string_val: "Goblin"
        string_val: "Goblin"
        string_val: "Goblin"
        string_val: "Goblin"
        string_val: "Human"
        string_val: "Human"
        string_val: "ManBears"
        string_val: "Goblin"
        string_val: "Goblin"
        string_val: "ManBears"
        string_val: "ManBears"
        string_val: "Goblin"
        string_val: "Goblin"
        string_val: "Human"
        string_val: "Human"
        string_val: "Human"
        string_val: "Goblin"
        string_val: "Goblin"
        string_val: "Goblin"
        string_val: "ManBears"
        string_val: "Goblin"
        string_val: "ManBears"
        string_val: "ManBears"
        string_val: "Goblin"
        string_val: "Goblin"
        string_val: "ManBears"
        string_val: "Goblin"
        string_val: "Human"
        string_val: "Human"
        string_val: "ManBears"
        string_val: "ManBears"
        string_val: "ManBears"
        string_val: "ManBears"
        string_val: "Human"
        string_val: "ManBears"
        string_val: "Goblin"
        string_val: "ManBears"
        string_val: "Goblin"
        string_val: "Goblin"
        string_val: "Human"
        string_val: "Goblin"
        string_val: "ManBears"
        string_val: "Human"
        string_val: "ManBears"
        string_val: "Goblin"
        string_val: "ManBears"
        string_val: "ManBears"
        string_val: "Human"
        string_val: "Human"
        string_val: "ManBears"
        string_val: "Human"
        string_val: "Goblin"
        string_val: "Human"
        string_val: "ManBears"
        string_val: "ManBears"
        string_val: "Human"
        string_val: "Human"
        string_val: "Human"
        string_val: "Human"
        string_val: "Human"
        string_val: "ManBears"
        string_val: "ManBears"
        string_val: "ManBears"
        string_val: "Goblin"
        string_val: "Human"
        string_val: "Human"
        string_val: "ManBears"
        string_val: "Human"
        string_val: "ManBears"
        string_val: "Human"
        string_val: "Goblin"
        string_val: "Human"
        string_val: "ManBears"
        string_val: "ManBears"
        string_val: "ManBears"
        string_val: "ManBears"
        string_val: "Goblin"
        string_val: "Goblin"
        string_val: "ManBears"
        string_val: "ManBears"
        string_val: "ManBears"
        string_val: "ManBears"
        string_val: "Goblin"
        string_val: "Goblin"
        string_val: "Goblin"
        string_val: "Goblin"
        string_val: "Human"
        string_val: "Human"
        string_val: "ManBears"
        string_val: "Human"
        string_val: "Goblin"
        string_val: "ManBears"
        string_val: "ManBears"
        string_val: "ManBears"
        string_val: "Human"
        string_val: "Goblin"
        string_val: "ManBears"
        string_val: "Goblin"
        string_val: "ManBears"
        string_val: "ManBears"
        string_val: "Goblin"
        string_val: "ManBears"
        string_val: "Human"
        string_val: "Goblin"
        string_val: "Human"
        string_val: "Goblin"
        string_val: "Human"
        string_val: "Goblin"
        string_val: "Goblin"
        string_val: "Goblin"
        string_val: "Human"
        string_val: "Goblin"
        string_val: "Human"
        string_val: "Human"
        string_val: "Human"
        string_val: "Goblin"
        string_val: "Human"
        string_val: "Human"
        string_val: "Human"
        string_val: "Goblin"
        string_val: "Goblin"
        string_val: "ManBears"
        string_val: "Human"
        string_val: "Goblin"
        string_val: "ManBears"
        string_val: "ManBears"
        string_val: "ManBears"
        string_val: "Human"
        string_val: "Human"
        string_val: "Goblin"
        string_val: "Goblin"
        string_val: "Goblin"
        string_val: "Human"
        string_val: "ManBears"
        string_val: "Goblin"
        string_val: "Goblin"
        string_val: "ManBears"
        string_val: "ManBears"
        string_val: "Human"
        string_val: "Goblin"
        string_val: "Goblin"
        string_val: "ManBears"
        string_val: "Human"
        string_val: "ManBears"
        string_val: "Goblin"
        string_val: "Human"
        string_val: "Goblin"
        string_val: "ManBears"
        string_val: "ManBears"
        string_val: "ManBears"
        string_val: "Goblin"
        string_val: "Human"
        string_val: "Goblin"
        string_val: "Human"
        string_val: "ManBears"
        string_val: "Human"
        string_val: "Goblin"
        string_val: "Human"
        string_val: "Human"
        string_val: "ManBears"
        string_val: "Goblin"
        string_val: "ManBears"
        string_val: "Goblin"
        string_val: "Human"
        string_val: "Goblin"
        string_val: "Human"
        string_val: "ManBears"
        string_val: "ManBears"
        string_val: "Human"
        string_val: "Human"
        string_val: "ManBears"
        string_val: "Goblin"
        string_val: "Goblin"
        string_val: "ManBears"
        string_val: "Goblin"
        string_val: "ManBears"
        string_val: "Goblin"
        string_val: "Human"
        string_val: "ManBears"
        string_val: "Goblin"
        string_val: "Human"
        string_val: "Goblin"
        string_val: "Goblin"
        string_val: "Human"
        string_val: "Human"
        string_val: "Goblin"
        string_val: "Human"
        string_val: "ManBears"
        string_val: "ManBears"
        string_val: "ManBears"
        string_val: "Goblin"
        string_val: "Human"
        string_val: "Goblin"
        string_val: "ManBears"
        string_val: "Human"
        string_val: "ManBears"
        string_val: "ManBears"
        string_val: "ManBears"
        string_val: "Goblin"
        string_val: "ManBears"
        string_val: "Goblin"
        string_val: "Goblin"
        string_val: "Human"
        string_val: "Goblin"
        string_val: "ManBears"
        string_val: "ManBears"
        string_val: "ManBears"
        string_val: "ManBears"
        string_val: "ManBears"
        string_val: "Human"
        string_val: "Human"
        string_val: "Goblin"
        string_val: "Goblin"
        string_val: "ManBears"
        string_val: "Human"
        string_val: "Human"
        string_val: "Human"
        string_val: "Human"
        string_val: "ManBears"
        string_val: "Human"
        string_val: "Human"
        string_val: "ManBears"
        string_val: "Human"
        string_val: "ManBears"
        string_val: "Goblin"
        string_val: "ManBears"
        string_val: "ManBears"
        string_val: "ManBears"
        string_val: "ManBears"
        string_val: "Human"
        string_val: "Goblin"
        string_val: "Human"
        string_val: "Goblin"
        string_val: "Goblin"
        string_val: "Human"
        string_val: "Goblin"
        string_val: "ManBears"
        string_val: "Goblin"
        string_val: "ManBears"
        string_val: "Human"
        string_val: "Goblin"
        string_val: "Human"
        string_val: "Goblin"
        string_val: "Goblin"
        string_val: "Human"
        string_val: "Human"
        string_val: "ManBears"
        string_val: "Human"
        string_val: "ManBears"
        string_val: "Human"
        string_val: "Goblin"
        string_val: "Human"
        string_val: "Goblin"
        string_val: "Goblin"
        string_val: "Goblin"
        string_val: "Goblin"
        string_val: "ManBears"
        string_val: "ManBears"
        string_val: "ManBears"
        string_val: "ManBears"
        string_val: "Goblin"
        string_val: "ManBears"
        string_val: "Goblin"
        string_val: "ManBears"
        string_val: "ManBears"
        string_val: "Goblin"
        string_val: "Goblin"
        string_val: "Human"
        string_val: "ManBears"
        string_val: "ManBears"
        string_val: "Goblin"
        string_val: "Goblin"
        string_val: "ManBears"
        string_val: "ManBears"
        string_val: "Goblin"
        string_val: "Human"
        string_val: "Goblin"
        string_val: "ManBears"
        string_val: "ManBears"
        string_val: "Human"
        string_val: "ManBears"
        string_val: "Human"
        string_val: "Goblin"
        string_val: "ManBears"
        string_val: "ManBears"
        string_val: "ManBears"
        string_val: "Goblin"
        string_val: "Goblin"
        string_val: "ManBears"
        string_val: "ManBears"
        string_val: "Human"
        string_val: "Goblin"
        string_val: "Human"
        string_val: "ManBears"
        string_val: "Goblin"
        string_val: "Human"
        string_val: "Human"
        string_val: "ManBears"
        string_val: "ManBears"
        string_val: "Human"
        string_val: "ManBears"
        string_val: "Goblin"
        string_val: "Goblin"
        string_val: "Human"
        string_val: "Goblin"
        string_val: "Goblin"
        string_val: "ManBears"
        string_val: "Goblin"
        string_val: "Human"
        string_val: "Human"
        string_val: "Goblin"
        string_val: "Human"
        string_val: "ManBears"
        string_val: "Human"
        string_val: "ManBears"
        string_val: "Human"
        string_val: "Goblin"
        string_val: "Human"
        string_val: "Human"
        string_val: "Goblin"
        string_val: "Goblin"
        string_val: "Human"
        string_val: "ManBears"
        string_val: "Human"
        string_val: "Goblin"
        string_val: "Goblin"
        string_val: "Human"
        string_val: "Human"
        string_val: "ManBears"
        string_val: "Goblin"
        string_val: "Human"
        string_val: "Goblin"
        string_val: "Goblin"
        string_val: "ManBears"
        string_val: "Goblin"
        string_val: "ManBears"
        string_val: "Goblin"
        string_val: "ManBears"
        string_val: "ManBears"
        string_val: "ManBears"
        string_val: "Human"
        string_val: "Goblin"
        string_val: "ManBears"
        string_val: "Human"
        string_val: "ManBears"
        string_val: "ManBears"
        string_val: "ManBears"
        string_val: "Human"
        string_val: "Human"
        string_val: "ManBears"
        string_val: "ManBears"
        string_val: "ManBears"
        string_val: "ManBears"
        string_val: "Human"
        string_val: "Human"
        string_val: "Goblin"
        string_val: "Goblin"
        string_val: "Goblin"
        string_val: "Goblin"
        string_val: "ManBears"
        string_val: "Goblin"
        string_val: "Human"
        string_val: "Human"
        string_val: "ManBears"
        string_val: "ManBears"
        string_val: "Human"
        string_val: "Human"
        string_val: "Goblin"
        string_val: "Goblin"
        string_val: "Goblin"
        string_val: "Human"
        string_val: "Human"
        string_val: "ManBears"
        string_val: "Goblin"
        string_val: "Human"
        string_val: "Goblin"
        string_val: "Human"
        string_val: "Human"
        string_val: "ManBears"
        string_val: "ManBears"
        string_val: "Human"
        string_val: "ManBears"
        string_val: "Goblin"
        string_val: "Goblin"
        string_val: "Goblin"
        string_val: "ManBears"
        string_val: "ManBears"
        string_val: "ManBears"
        string_val: "ManBears"
        string_val: "Human"
        string_val: "Human"
        string_val: "ManBears"
        string_val: "ManBears"
        string_val: "Human"
        string_val: "Human"
        string_val: "Goblin"
        string_val: "Goblin"
        string_val: "ManBears"
        string_val: "Goblin"
        string_val: "ManBears"
        string_val: "ManBears"
        string_val: "Human"
        string_val: "ManBears"
        string_val: "Goblin"
        string_val: "Human"
        string_val: "Goblin"
        string_val: "ManBears"
        string_val: "Human"
        string_val: "Goblin"
        string_val: "Goblin"
        string_val: "Goblin"
        string_val: "Goblin"
        string_val: "ManBears"
        string_val: "Human"
        string_val: "Human"
        string_val: "Human"
        string_val: "Goblin"
        string_val: "Goblin"
        string_val: "Goblin"
        string_val: "Goblin"
        string_val: "Human"
        string_val: "Goblin"
        string_val: "Human"
        string_val: "Human"
        string_val: "Human"
        string_val: "Human"
        string_val: "ManBears"
        string_val: "Goblin"
        string_val: "ManBears"
        string_val: "Goblin"
        string_val: "ManBears"
        string_val: "Human"
        string_val: "Human"
        string_val: "ManBears"
        string_val: "Human"
        string_val: "ManBears"
        string_val: "Human"
        string_val: "Goblin"
        string_val: "Human"
        string_val: "Goblin"
        string_val: "Human"
        string_val: "Human"
        string_val: "Human"
        string_val: "Human"
        string_val: "ManBears"
        string_val: "Goblin"
        string_val: "Goblin"
        string_val: "Human"
        string_val: "Human"
        string_val: "Goblin"
        string_val: "ManBears"
        string_val: "Human"
        string_val: "Goblin"
        string_val: "Goblin"
        string_val: "Human"
        string_val: "Goblin"
        string_val: "ManBears"
        string_val: "Human"
        string_val: "Goblin"
        string_val: "Human"
        string_val: "Human"
        string_val: "Human"
        string_val: "Human"
        string_val: "ManBears"
        string_val: "Human"
        string_val: "Human"
        string_val: "Goblin"
        string_val: "ManBears"
        string_val: "ManBears"
        string_val: "ManBears"
        string_val: "Human"
        string_val: "Human"
        string_val: "ManBears"
        string_val: "Human"
        string_val: "ManBears"
        string_val: "Human"
        string_val: "Human"
        string_val: "ManBears"
        string_val: "ManBears"
        string_val: "Human"
        string_val: "ManBears"
        string_val: "Human"
        string_val: "ManBears"
        string_val: "Goblin"
        string_val: "ManBears"
        string_val: "Human"
        string_val: "Human"
        string_val: "ManBears"
        string_val: "Goblin"
        string_val: "Human"
        string_val: "ManBears"
        string_val: "Human"
        string_val: "Goblin"
        string_val: "Goblin"
        string_val: "ManBears"
        string_val: "Human"
        string_val: "Goblin"
        string_val: "Goblin"
        string_val: "ManBears"
        string_val: "Human"
        string_val: "Goblin"
        string_val: "ManBears"
        string_val: "Human"
        string_val: "Human"
        string_val: "ManBears"
        string_val: "Goblin"
        string_val: "ManBears"
        string_val: "ManBears"
        string_val: "Human"
        string_val: "ManBears"
        string_val: "ManBears"
        string_val: "Goblin"
        string_val: "Goblin"
        string_val: "Goblin"
        string_val: "ManBears"
        string_val: "Human"
        string_val: "ManBears"
        string_val: "Human"
        string_val: "ManBears"
        string_val: "Goblin"
        string_val: "Goblin"
        string_val: "Human"
        string_val: "Human"
        string_val: "Human"
        string_val: "Human"
        string_val: "ManBears"
        string_val: "Goblin"
        string_val: "Goblin"
        string_val: "Human"
        string_val: "Goblin"
        string_val: "Goblin"
        string_val: "Human"
        string_val: "Human"
        string_val: "Goblin"
        string_val: "Goblin"
        string_val: "Human"
        string_val: "Human"
        string_val: "Human"
        string_val: "ManBears"
        string_val: "Human"
        string_val: "Goblin"
        string_val: "Goblin"
        string_val: "Goblin"
        string_val: "ManBears"
        string_val: "Human"
        string_val: "Goblin"
        string_val: "Goblin"
        string_val: "ManBears"
        string_val: "ManBears"
        string_val: "Goblin"
        string_val: "Goblin"
        string_val: "Goblin"
        string_val: "Goblin"
        string_val: "Goblin"
        string_val: "ManBears"
        string_val: "ManBears"
        string_val: "ManBears"
        string_val: "Human"
        string_val: "ManBears"
        string_val: "ManBears"
        string_val: "ManBears"
        string_val: "Goblin"
        string_val: "Human"
        string_val: "Goblin"
        string_val: "ManBears"
        string_val: "Goblin"
        string_val: "ManBears"
        string_val: "ManBears"
        string_val: "Human"
        string_val: "ManBears"
        string_val: "ManBears"
        string_val: "ManBears"
        string_val: "ManBears"
        string_val: "Human"
        string_val: "Human"
        string_val: "ManBears"
        string_val: "Human"
        string_val: "Human"
        string_val: "Goblin"
        string_val: "Goblin"
        string_val: "ManBears"
        string_val: "ManBears"
        string_val: "Human"
        string_val: "Goblin"
        string_val: "Goblin"
        string_val: "Goblin"
        string_val: "ManBears"
        string_val: "Goblin"
        string_val: "ManBears"
        string_val: "Human"
        string_val: "Goblin"
        string_val: "Goblin"
        string_val: "Goblin"
        string_val: "Human"
        string_val: "Goblin"
        string_val: "Human"
        string_val: "ManBears"
        string_val: "Human"
        string_val: "ManBears"
        string_val: "Human"
        string_val: "Human"
        string_val: "Human"
        string_val: "ManBears"
        string_val: "ManBears"
        string_val: "ManBears"
        string_val: "Human"
        string_val: "Human"
        string_val: "ManBears"
        string_val: "Goblin"
        string_val: "Goblin"
        string_val: "ManBears"
        string_val: "ManBears"
        string_val: "Human"
        string_val: "Goblin"
        string_val: "Human"
        string_val: "ManBears"
        string_val: "Goblin"
        string_val: "Human"
        string_val: "ManBears"
        string_val: "ManBears"
        string_val: "Goblin"
        string_val: "Human"
        string_val: "ManBears"
        string_val: "Goblin"
        string_val: "Goblin"
        string_val: "Human"
        string_val: "Goblin"
        string_val: "Goblin"
        string_val: "Goblin"
        string_val: "Goblin"
        string_val: "Human"
        string_val: "Goblin"
        string_val: "Human"
        string_val: "ManBears"
        string_val: "Human"
        string_val: "Human"
        string_val: "Goblin"
        string_val: "ManBears"
        string_val: "ManBears"
        string_val: "Goblin"
        string_val: "ManBears"
        string_val: "Human"
        string_val: "Goblin"
        string_val: "Human"
        string_val: "Goblin"
        string_val: "ManBears"
        string_val: "ManBears"
        string_val: "Human"
        string_val: "Human"
        string_val: "Human"
        string_val: "ManBears"
        string_val: "Goblin"
        string_val: "Goblin"
        string_val: "Goblin"
        string_val: "ManBears"
        string_val: "Goblin"
        string_val: "ManBears"
        string_val: "Goblin"
        string_val: "ManBears"
        string_val: "Human"
        string_val: "Goblin"
        string_val: "Human"
        string_val: "Goblin"
        string_val: "ManBears"
        string_val: "Human"
        string_val: "ManBears"
        string_val: "Goblin"
        string_val: "Goblin"
        string_val: "ManBears"
        string_val: "Goblin"
        string_val: "Human"
        string_val: "Goblin"
        string_val: "Human"
        string_val: "ManBears"
        string_val: "Human"
        string_val: "Goblin"
        string_val: "Human"
        string_val: "Human"
        string_val: "ManBears"
        string_val: "Human"
        string_val: "Goblin"
        string_val: "ManBears"
        string_val: "Human"
        string_val: "Goblin"
        string_val: "Goblin"
        string_val: "Goblin"
        string_val: "Goblin"
        string_val: "Goblin"
        string_val: "Human"
        string_val: "Goblin"
        string_val: "ManBears"
        string_val: "Human"
        string_val: "Goblin"
        string_val: "Human"
        string_val: "Human"
        string_val: "ManBears"
        string_val: "Goblin"
        string_val: "Goblin"
        string_val: "Goblin"
        string_val: "ManBears"
        string_val: "Human"
        string_val: "Goblin"
        string_val: "Human"
        string_val: "Goblin"
        string_val: "Goblin"
        string_val: "Goblin"
        string_val: "ManBears"
        string_val: "Human"
        string_val: "ManBears"
        string_val: "Human"
        string_val: "ManBears"
        string_val: "ManBears"
        string_val: "Goblin"
        string_val: "ManBears"
        string_val: "Goblin"
        string_val: "Human"
        string_val: "ManBears"
        string_val: "Goblin"
        string_val: "ManBears"
        string_val: "ManBears"
        string_val: "Goblin"
        string_val: "Goblin"
        string_val: "Human"
        string_val: "ManBears"
        string_val: "ManBears"
        string_val: "ManBears"
        string_val: "ManBears"
        string_val: "Goblin"
        string_val: "ManBears"
        string_val: "Goblin"
        string_val: "ManBears"
        string_val: "ManBears"
        string_val: "Goblin"
        string_val: "Human"
        string_val: "ManBears"
        string_val: "Goblin"
        string_val: "Goblin"
        string_val: "Goblin"
        string_val: "ManBears"
        string_val: "Goblin"
        string_val: "Human"
        string_val: "Human"
        string_val: "ManBears"
        string_val: "Human"
        string_val: "ManBears"
        string_val: "Human"
        string_val: "ManBears"
        string_val: "Goblin"
        string_val: "Human"
        string_val: "Human"
        string_val: "Human"
        string_val: "Goblin"
        string_val: "Human"
        string_val: "ManBears"
        string_val: "Goblin"
        string_val: "Human"
        string_val: "Human"
        string_val: "ManBears"
        string_val: "ManBears"
        string_val: "Goblin"
        string_val: "Goblin"
        string_val: "Human"
        string_val: "Goblin"
        string_val: "Goblin"
        string_val: "Human"
        string_val: "ManBears"
        string_val: "Goblin"
        string_val: "ManBears"
        string_val: "Human"
        string_val: "Human"
        string_val: "Human"
        string_val: "ManBears"
        string_val: "Goblin"
        string_val: "Goblin"
        string_val: "Goblin"
        string_val: "Goblin"
        string_val: "Human"
        string_val: "Goblin"
        string_val: "Goblin"
        string_val: "Goblin"
        string_val: "Human"
        string_val: "Goblin"
        string_val: "ManBears"
        string_val: "Goblin"
        string_val: "Human"
        string_val: "Human"
        string_val: "ManBears"
        string_val: "Human"
        string_val: "Goblin"
        string_val: "Goblin"
        string_val: "Human"
        string_val: "Human"
        string_val: "ManBears"
        string_val: "Human"
        string_val: "Goblin"
        string_val: "Goblin"
        string_val: "Human"
        string_val: "ManBears"
        string_val: "Goblin"
        string_val: "Human"
        string_val: "ManBears"
        string_val: "Goblin"
        string_val: "ManBears"
        string_val: "Human"
        string_val: "Goblin"
        string_val: "Goblin"
        string_val: "Human"
        string_val: "Goblin"
        string_val: "Human"
        string_val: "Goblin"
        string_val: "Human"
        string_val: "ManBears"
        string_val: "ManBears"
        string_val: "Goblin"
        string_val: "ManBears"
        string_val: "Goblin"
        string_val: "ManBears"
        string_val: "Human"
        string_val: "ManBears"
        string_val: "Human"
        string_val: "Goblin"
        string_val: "Goblin"
        string_val: "Human"
        string_val: "Human"
        string_val: "ManBears"
        string_val: "ManBears"
        string_val: "Human"
        string_val: "Goblin"
        string_val: "Human"
        string_val: "Human"
        string_val: "Goblin"
        string_val: "Goblin"
        string_val: "Goblin"
        string_val: "Goblin"
        string_val: "Human"
        string_val: "Goblin"
        string_val: "Goblin"
        string_val: "Human"
        string_val: "Human"
        string_val: "ManBears"
        string_val: "Goblin"
        string_val: "Human"
        string_val: "ManBears"
        string_val: "ManBears"
        string_val: "ManBears"
        string_val: "Goblin"
        string_val: "ManBears"
        string_val: "Human"
        string_val: "Human"
        string_val: "Human"
        string_val: "Human"
        string_val: "Human"
        string_val: "Goblin"
        string_val: "Goblin"
        string_val: "Human"
        string_val: "Goblin"
        string_val: "Human"
        string_val: "ManBears"
        string_val: "Goblin"
        string_val: "ManBears"
        string_val: "Human"
        string_val: "Goblin"
        string_val: "Human"
        string_val: "Human"
        string_val: "Goblin"
        string_val: "ManBears"
        string_val: "Human"
        string_val: "Human"
        string_val: "Goblin"
        string_val: "Human"
        string_val: "Human"
        string_val: "Goblin"
        string_val: "Goblin"
        string_val: "Human"
        string_val: "Goblin"
        string_val: "Human"
        string_val: "ManBears"
        string_val: "Goblin"
        string_val: "Goblin"
        string_val: "Goblin"
        string_val: "Goblin"
        string_val: "ManBears"
        string_val: "Goblin"
        string_val: "ManBears"
        string_val: "Human"
        string_val: "Goblin"
        string_val: "Human"
        string_val: "Human"
        string_val: "ManBears"
        string_val: "Human"
        string_val: "Human"
        string_val: "ManBears"
        string_val: "ManBears"
        string_val: "Goblin"
        string_val: "Goblin"
        string_val: "Human"
        string_val: "ManBears"
        string_val: "Goblin"
        string_val: "ManBears"
        string_val: "Human"
        string_val: "ManBears"
        string_val: "Goblin"
        string_val: "Human"
        string_val: "Goblin"
        string_val: "Goblin"
        string_val: "ManBears"
        string_val: "ManBears"
        string_val: "Human"
        string_val: "Human"
        string_val: "Goblin"
        string_val: "Goblin"
        string_val: "Human"
        string_val: "Human"
        string_val: "ManBears"
        string_val: "Human"
        string_val: "ManBears"
        string_val: "ManBears"
        string_val: "Human"
        string_val: "Human"
        string_val: "Goblin"
        string_val: "ManBears"
        string_val: "Human"
        string_val: "Goblin"
        string_val: "Human"
        string_val: "Human"
        string_val: "Goblin"
        string_val: "Goblin"
        string_val: "Goblin"
        string_val: "Human"
        string_val: "ManBears"
        string_val: "ManBears"
        string_val: "Goblin"
        string_val: "Human"
        string_val: "ManBears"
        string_val: "Goblin"
        string_val: "Goblin"
        string_val: "ManBears"
        string_val: "Goblin"
        string_val: "Human"
        string_val: "Human"
        string_val: "ManBears"
        string_val: "Goblin"
        string_val: "Human"
        string_val: "Goblin"
        string_val: "ManBears"
        string_val: "Human"
        string_val: "ManBears"
        string_val: "Human"
        string_val: "Human"
        string_val: "Human"
        string_val: "Human"
        string_val: "Human"
        string_val: "Human"
        string_val: "Goblin"
        string_val: "Goblin"
        string_val: "ManBears"
        string_val: "Goblin"
        string_val: "ManBears"
        string_val: "ManBears"
        string_val: "Goblin"
        string_val: "Human"
        string_val: "ManBears"
        string_val: "Goblin"
        string_val: "Human"
        string_val: "Human"
        string_val: "ManBears"
        string_val: "ManBears"
        string_val: "Human"
        string_val: "Human"
        string_val: "ManBears"
        string_val: "Human"
        string_val: "Goblin"
        string_val: "Goblin"
        string_val: "Goblin"
        string_val: "Goblin"
        string_val: "Goblin"
        string_val: "Human"
        string_val: "ManBears"
        string_val: "ManBears"
        string_val: "Goblin"
        string_val: "Goblin"
        string_val: "ManBears"
        string_val: "Human"
        string_val: "ManBears"
        string_val: "ManBears"
        string_val: "ManBears"
        string_val: "ManBears"
        string_val: "ManBears"
        string_val: "ManBears"
        string_val: "Human"
        string_val: "ManBears"
        string_val: "ManBears"
        string_val: "Goblin"
        string_val: "Goblin"
        string_val: "Goblin"
        string_val: "Goblin"
        string_val: "Human"
        string_val: "Human"
        string_val: "Human"
        string_val: "Goblin"
        string_val: "Goblin"
        string_val: "Goblin"
        string_val: "ManBears"
        string_val: "Human"
        string_val: "Human"
        string_val: "ManBears"
        string_val: "Human"
        string_val: "Goblin"
        string_val: "Goblin"
        string_val: "Human"
        string_val: "Human"
        string_val: "ManBears"
        string_val: "Human"
        string_val: "Human"
        string_val: "ManBears"
        string_val: "ManBears"
        string_val: "ManBears"
        string_val: "ManBears"
        string_val: "Human"
        string_val: "ManBears"
        string_val: "ManBears"
        string_val: "Human"
        string_val: "Goblin"
        string_val: "Goblin"
        string_val: "Human"
        string_val: "Human"
        string_val: "ManBears"
        string_val: "Human"
        string_val: "ManBears"
        string_val: "ManBears"
        string_val: "Human"
        string_val: "Goblin"
        string_val: "Goblin"
        string_val: "ManBears"
        string_val: "ManBears"
        string_val: "ManBears"
        string_val: "Goblin"
        string_val: "Goblin"
        string_val: "Goblin"
        string_val: "Goblin"
        string_val: "ManBears"
        string_val: "ManBears"
        string_val: "ManBears"
        string_val: "ManBears"
        string_val: "Goblin"
        string_val: "Human"
        string_val: "Human"
        string_val: "Goblin"
        string_val: "Human"
        string_val: "ManBears"
        string_val: "ManBears"
        string_val: "Human"
        string_val: "Goblin"
        string_val: "Human"
        string_val: "Goblin"
        string_val: "Human"
        string_val: "ManBears"
        string_val: "Human"
        string_val: "Goblin"
        string_val: "Human"
        string_val: "Goblin"
        string_val: "ManBears"
        string_val: "Human"
        string_val: "ManBears"
        string_val: "Goblin"
        string_val: "Human"
        string_val: "Goblin"
        string_val: "ManBears"
        string_val: "Goblin"
        string_val: "ManBears"
        string_val: "ManBears"
        string_val: "Goblin"
        string_val: "Human"
        string_val: "ManBears"
        string_val: "Human"
        string_val: "ManBears"
        string_val: "ManBears"
        string_val: "Human"
        string_val: "ManBears"
        string_val: "Goblin"
        string_val: "Human"
        string_val: "ManBears"
        string_val: "Goblin"
        string_val: "ManBears"
        string_val: "ManBears"
        string_val: "Goblin"
        string_val: "Goblin"
        string_val: "Human"
        string_val: "Goblin"
        string_val: "ManBears"
        string_val: "Goblin"
        string_val: "Goblin"
        string_val: "ManBears"
        string_val: "Human"
        string_val: "ManBears"
        string_val: "ManBears"
        string_val: "Goblin"
        string_val: "ManBears"
        string_val: "Goblin"
        string_val: "ManBears"
        string_val: "Goblin"
        string_val: "ManBears"
        string_val: "Goblin"
        string_val: "Goblin"
        string_val: "Human"
        string_val: "ManBears"
        string_val: "Human"
        string_val: "Human"
        string_val: "Human"
        string_val: "ManBears"
        string_val: "ManBears"
        string_val: "Human"
        string_val: "Goblin"
        string_val: "Goblin"
        string_val: "Goblin"
        string_val: "ManBears"
        string_val: "Goblin"
        string_val: "Human"
        string_val: "Goblin"
        string_val: "Human"
        string_val: "ManBears"
        string_val: "ManBears"
        string_val: "ManBears"
        string_val: "Human"
        string_val: "Goblin"
        string_val: "Human"
        string_val: "Human"
        string_val: "Goblin"
        string_val: "Goblin"
        string_val: "Goblin"
        string_val: "ManBears"
        string_val: "ManBears"
        string_val: "Goblin"
        string_val: "Goblin"
        string_val: "Human"
        string_val: "Human"
        string_val: "Goblin"
        string_val: "Goblin"
        string_val: "Goblin"
        string_val: "ManBears"
        string_val: "Human"
        string_val: "Human"
        string_val: "Human"
        string_val: "Goblin"
        string_val: "Human"
        string_val: "ManBears"
        string_val: "ManBears"
        string_val: "Goblin"
        string_val: "ManBears"
        string_val: "Goblin"
        string_val: "Human"
        string_val: "Human"
        string_val: "Human"
        string_val: "Goblin"
        string_val: "Human"
        string_val: "ManBears"
        string_val: "Human"
        string_val: "ManBears"
        string_val: "ManBears"
        string_val: "Human"
        string_val: "Human"
        string_val: "ManBears"
        string_val: "Goblin"
        string_val: "ManBears"
        string_val: "Goblin"
        string_val: "ManBears"
        string_val: "ManBears"
        string_val: "Human"
        string_val: "ManBears"
        string_val: "ManBears"
        string_val: "Goblin"
        string_val: "ManBears"
        string_val: "Goblin"
        string_val: "ManBears"
        string_val: "Goblin"
        string_val: "Human"
        string_val: "Human"
        string_val: "Goblin"
        string_val: "ManBears"
        string_val: "ManBears"
        string_val: "Human"
        string_val: "Human"
        string_val: "Goblin"
        string_val: "Goblin"
        string_val: "ManBears"
        string_val: "Goblin"
        string_val: "ManBears"
        string_val: "Human"
        string_val: "Human"
        string_val: "ManBears"
        string_val: "ManBears"
        string_val: "ManBears"
        string_val: "Goblin"
        string_val: "Goblin"
        string_val: "Human"
        string_val: "Human"
        string_val: "ManBears"
        string_val: "Goblin"
        string_val: "Goblin"
        string_val: "ManBears"
        string_val: "ManBears"
        string_val: "ManBears"
        string_val: "Goblin"
        string_val: "Human"
        string_val: "ManBears"
        string_val: "Human"
        string_val: "ManBears"
        string_val: "Goblin"
        string_val: "ManBears"
        string_val: "Goblin"
        string_val: "Human"
        string_val: "Goblin"
        string_val: "Goblin"
        string_val: "Human"
        string_val: "Human"
        string_val: "ManBears"
        string_val: "Goblin"
        string_val: "Human"
        string_val: "Goblin"
        string_val: "Goblin"
        string_val: "ManBears"
        string_val: "Human"
        string_val: "Goblin"
        string_val: "Human"
        string_val: "Goblin"
        string_val: "Goblin"
        string_val: "ManBears"
        string_val: "ManBears"
        string_val: "ManBears"
        string_val: "Human"
        string_val: "Human"
        string_val: "Human"
        string_val: "Goblin"
        string_val: "Human"
        string_val: "ManBears"
        string_val: "Human"
        string_val: "ManBears"
        string_val: "ManBears"
        string_val: "Goblin"
        string_val: "Goblin"
        string_val: "Human"
        string_val: "Human"
        string_val: "ManBears"
        string_val: "ManBears"
        string_val: "ManBears"
        string_val: "ManBears"
        string_val: "Human"
        string_val: "Human"
        string_val: "Goblin"
        string_val: "Human"
        string_val: "Goblin"
        string_val: "Goblin"
        string_val: "Human"
        string_val: "Human"
        string_val: "Goblin"
        string_val: "Goblin"
        string_val: "Goblin"
        string_val: "Goblin"
        string_val: "Human"
        string_val: "ManBears"
        string_val: "Human"
        string_val: "Goblin"
        string_val: "ManBears"
        string_val: "Human"
        string_val: "Goblin"
        string_val: "ManBears"
        string_val: "ManBears"
        string_val: "Human"
        string_val: "ManBears"
        string_val: "Human"
        string_val: "Goblin"
        string_val: "Human"
        string_val: "ManBears"
        string_val: "Human"
        string_val: "ManBears"
        string_val: "ManBears"
        string_val: "Goblin"
        string_val: "Goblin"
        string_val: "ManBears"
        string_val: "Human"
        string_val: "Goblin"
        string_val: "Goblin"
        string_val: "Human"
        string_val: "Goblin"
        string_val: "ManBears"
        string_val: "Goblin"
        string_val: "Goblin"
        string_val: "Human"
        string_val: "Human"
        string_val: "Human"
        string_val: "Goblin"
        string_val: "Goblin"
        string_val: "Goblin"
        string_val: "ManBears"
        string_val: "Human"
        string_val: "Human"
        string_val: "Human"
        string_val: "ManBears"
        string_val: "ManBears"
        string_val: "Goblin"
        string_val: "Goblin"
        string_val: "ManBears"
        string_val: "Human"
        string_val: "Goblin"
        string_val: "Human"
        string_val: "Human"
        string_val: "Goblin"
        string_val: "Goblin"
        string_val: "ManBears"
        string_val: "ManBears"
        string_val: "Human"
        string_val: "Goblin"
        string_val: "ManBears"
        string_val: "Goblin"
        string_val: "ManBears"
        string_val: "ManBears"
        string_val: "ManBears"
        string_val: "Goblin"
        string_val: "Goblin"
        string_val: "ManBears"
        string_val: "ManBears"
        string_val: "ManBears"
        string_val: "Human"
        string_val: "Human"
        string_val: "ManBears"
        string_val: "Goblin"
        string_val: "Human"
        string_val: "Human"
        string_val: "Goblin"
        string_val: "Human"
        string_val: "Human"
        string_val: "ManBears"
        string_val: "Human"
        string_val: "Goblin"
        string_val: "ManBears"
        string_val: "Human"
        string_val: "ManBears"
        string_val: "ManBears"
        string_val: "Human"
        string_val: "ManBears"
        string_val: "Goblin"
        string_val: "Human"
        string_val: "ManBears"
        string_val: "ManBears"
        string_val: "ManBears"
        string_val: "Human"
        string_val: "Human"
        string_val: "Human"
        string_val: "Goblin"
        string_val: "ManBears"
        string_val: "ManBears"
        string_val: "ManBears"
        string_val: "Human"
        string_val: "Human"
        string_val: "ManBears"
        string_val: "Goblin"
        string_val: "Human"
        string_val: "ManBears"
        string_val: "ManBears"
        string_val: "Goblin"
        string_val: "ManBears"
        string_val: "Human"
        string_val: "Goblin"
        string_val: "Human"
        string_val: "ManBears"
        string_val: "Goblin"
        string_val: "Goblin"
        string_val: "Human"
        string_val: "Goblin"
        string_val: "ManBears"
        string_val: "ManBears"
        string_val: "Human"
        string_val: "ManBears"
        string_val: "Goblin"
        string_val: "ManBears"
        string_val: "ManBears"
        string_val: "Goblin"
        string_val: "ManBears"
        string_val: "Goblin"
        string_val: "Human"
        string_val: "Human"
        string_val: "Human"
        string_val: "ManBears"
        string_val: "Human"
        string_val: "ManBears"
        string_val: "Human"
        string_val: "Human"
        string_val: "Human"
        string_val: "ManBears"
        string_val: "ManBears"
        string_val: "Goblin"
        string_val: "Human"
        string_val: "Human"
        string_val: "ManBears"
        string_val: "ManBears"
        string_val: "Goblin"
        string_val: "ManBears"
        string_val: "ManBears"
        string_val: "Goblin"
        string_val: "Human"
        string_val: "ManBears"
        string_val: "ManBears"
        string_val: "Goblin"
        string_val: "Goblin"
        string_val: "Human"
        string_val: "Goblin"
        string_val: "ManBears"
        string_val: "ManBears"
        string_val: "ManBears"
        string_val: "Goblin"
        string_val: "Human"
        string_val: "Human"
        string_val: "Human"
        string_val: "Human"
        string_val: "ManBears"
        string_val: "Human"
        string_val: "Human"
        string_val: "Goblin"
        string_val: "Human"
        string_val: "Human"
        string_val: "ManBears"
        string_val: "Human"
        string_val: "Goblin"
        string_val: "Human"
        string_val: "Goblin"
        string_val: "Human"
        string_val: "Goblin"
        string_val: "Goblin"
        string_val: "ManBears"
        string_val: "ManBears"
        string_val: "ManBears"
        string_val: "Goblin"
        string_val: "Goblin"
        string_val: "Goblin"
        string_val: "Goblin"
        string_val: "ManBears"
        string_val: "Goblin"
        string_val: "Human"
        string_val: "ManBears"
        string_val: "Human"
        string_val: "Goblin"
        string_val: "ManBears"
        string_val: "ManBears"
        string_val: "Goblin"
        string_val: "Human"
        string_val: "Goblin"
        string_val: "Goblin"
        string_val: "ManBears"
        string_val: "Goblin"
        string_val: "Human"
        string_val: "Human"
        string_val: "Goblin"
        string_val: "Human"
        string_val: "ManBears"
        string_val: "Human"
        string_val: "ManBears"
        string_val: "ManBears"
        string_val: "ManBears"
        string_val: "Human"
        string_val: "Human"
        string_val: "Human"
        string_val: "Human"
        string_val: "ManBears"
        string_val: "Goblin"
        string_val: "ManBears"
        string_val: "Goblin"
        string_val: "Human"
        string_val: "Goblin"
        string_val: "ManBears"
        string_val: "Goblin"
        string_val: "ManBears"
        string_val: "Goblin"
        string_val: "Goblin"
        string_val: "Goblin"
        string_val: "ManBears"
        string_val: "Goblin"
        string_val: "Human"
        string_val: "Goblin"
        string_val: "Goblin"
        string_val: "ManBears"
        string_val: "Goblin"
        string_val: "Goblin"
        string_val: "Human"
        string_val: "Human"
        string_val: "Human"
        string_val: "ManBears"
        string_val: "Human"
        string_val: "ManBears"
        string_val: "ManBears"
        string_val: "Human"
        string_val: "Goblin"
        string_val: "Human"
        string_val: "ManBears"
        string_val: "ManBears"
        string_val: "Human"
        string_val: "ManBears"
        string_val: "ManBears"
        string_val: "Human"
        string_val: "ManBears"
        string_val: "ManBears"
        string_val: "Goblin"
        string_val: "ManBears"
        string_val: "Goblin"
        string_val: "Goblin"
        string_val: "Human"
        string_val: "Human"
        string_val: "ManBears"
        string_val: "Goblin"
        string_val: "Goblin"
        string_val: "Goblin"
        string_val: "Goblin"
        string_val: "Goblin"
        string_val: "Goblin"
        string_val: "ManBears"
        string_val: "Goblin"
        string_val: "ManBears"
        string_val: "Human"
        string_val: "Human"
        string_val: "Human"
        string_val: "Human"
        string_val: "Human"
        string_val: "Goblin"
        string_val: "Goblin"
        string_val: "Human"
        string_val: "ManBears"
        string_val: "Human"
        string_val: "ManBears"
        string_val: "Goblin"
        string_val: "ManBears"
        string_val: "ManBears"
        string_val: "Human"
        string_val: "Human"
        string_val: "Goblin"
        string_val: "ManBears"
        string_val: "Human"
        string_val: "ManBears"
        string_val: "Goblin"
        string_val: "ManBears"
        string_val: "ManBears"
        string_val: "Goblin"
        string_val: "Human"
        string_val: "ManBears"
        string_val: "Goblin"
        string_val: "Human"
        string_val: "ManBears"
        string_val: "ManBears"
        string_val: "Human"
        string_val: "Goblin"
        string_val: "ManBears"
        string_val: "Goblin"
        string_val: "Human"
        string_val: "ManBears"
        string_val: "Goblin"
        string_val: "Goblin"
        string_val: "Human"
        string_val: "ManBears"
        string_val: "ManBears"
        string_val: "Human"
        string_val: "ManBears"
        string_val: "Human"
        string_val: "Goblin"
        string_val: "Human"
        string_val: "Human"
        string_val: "ManBears"
        string_val: "ManBears"
        string_val: "Human"
        string_val: "Goblin"
        string_val: "Goblin"
        string_val: "ManBears"
        string_val: "Human"
        string_val: "Human"
        string_val: "Human"
        string_val: "Goblin"
        string_val: "Goblin"
        string_val: "Human"
        string_val: "ManBears"
        string_val: "ManBears"
        string_val: "Goblin"
        string_val: "Human"
        string_val: "Human"
        string_val: "Human"
        string_val: "Human"
        string_val: "ManBears"
        string_val: "ManBears"
        string_val: "Human"
        string_val: "Goblin"
        string_val: "Human"
        string_val: "Human"
        string_val: "Goblin"
        string_val: "Goblin"
        string_val: "Goblin"
        string_val: "ManBears"
        string_val: "Goblin"
        string_val: "Goblin"
        string_val: "Goblin"
        string_val: "ManBears"
        string_val: "ManBears"
        string_val: "Human"
        string_val: "Goblin"
        string_val: "Goblin"
        string_val: "ManBears"
        string_val: "ManBears"
        string_val: "ManBears"
        string_val: "Goblin"
        string_val: "Goblin"
        string_val: "Human"
        string_val: "Goblin"
        string_val: "Human"
        string_val: "ManBears"
        string_val: "Goblin"
        string_val: "ManBears"
        string_val: "Human"
        string_val: "Goblin"
        string_val: "Human"
        string_val: "Goblin"
        string_val: "ManBears"
        string_val: "ManBears"
        string_val: "Human"
…
  name: "report_uninitialized_variables_1/boolean_mask/strided_slice_2/stack_2"
  op: "Const"
  device: "/device:CPU:0"
  attr {
    key: "_output_shapes"
    value {
      list {
        shape {
          dim {
            size: 1
          }
        }
      }
    }
  }
  attr {
    key: "dtype"
    value {
      type: DT_INT32
    }
  }
  attr {
    key: "value"
    value {
      tensor {
        dtype: DT_INT32
        tensor_shape {
          dim {
            size: 1
          }
        }
        int_val: 1
      }
    }
  }
}
node {
  name: "report_uninitialized_variables_1/boolean_mask/strided_slice_2"
  op: "StridedSlice"
  input: "report_uninitialized_variables_1/boolean_mask/Shape_2"
  input: "report_uninitialized_variables_1/boolean_mask/strided_slice_2/stack"
  input: "report_uninitialized_variables_1/boolean_mask/strided_slice_2/stack_1"
  input: "report_uninitialized_variables_1/boolean_mask/strided_slice_2/stack_2"
  device: "/device:CPU:0"
  attr {
    key: "Index"
    value {
      type: DT_INT32
    }
  }
  attr {
    key: "T"
    value {
      type: DT_INT32
    }
  }
  attr {
    key: "_output_shapes"
    value {
      list {
        shape {
          dim {
          }
        }
      }
    }
  }
  attr {
    key: "begin_mask"
    value {
      i: 0
    }
  }
  attr {
    key: "ellipsis_mask"
    value {
      i: 0
    }
  }
  attr {
    key: "end_mask"
    value {
      i: 1
    }
  }
  attr {
    key: "new_axis_mask"
    value {
      i: 0
    }
  }
  attr {
    key: "shrink_axis_mask"
    value {
      i: 0
    }
  }
}
node {
  name: "report_uninitialized_variables_1/boolean_mask/concat/values_1"
  op: "Pack"
  input: "report_uninitialized_variables_1/boolean_mask/Prod"
  device: "/device:CPU:0"
  attr {
    key: "N"
    value {
      i: 1
    }
  }
  attr {
    key: "T"
    value {
      type: DT_INT32
    }
  }
  attr {
    key: "_output_shapes"
    value {
      list {
        shape {
          dim {
            size: 1
          }
        }
      }
    }
  }
  attr {
    key: "axis"
    value {
      i: 0
    }
  }
}
node {
  name: "report_uninitialized_variables_1/boolean_mask/concat/axis"
  op: "Const"
  device: "/device:CPU:0"
  attr {
    key: "_output_shapes"
    value {
      list {
        shape {
        }
      }
    }
  }
  attr {
    key: "dtype"
    value {
      type: DT_INT32
    }
  }
  attr {
    key: "value"
    value {
      tensor {
        dtype: DT_INT32
        tensor_shape {
        }
        int_val: 0
      }
    }
  }
}
node {
  name: "report_uninitialized_variables_1/boolean_mask/concat"
  op: "ConcatV2"
  input: "report_uninitialized_variables_1/boolean_mask/strided_slice_1"
  input: "report_uninitialized_variables_1/boolean_mask/concat/values_1"
  input: "report_uninitialized_variables_1/boolean_mask/strided_slice_2"
  input: "report_uninitialized_variables_1/boolean_mask/concat/axis"
  device: "/device:CPU:0"
  attr {
    key: "N"
    value {
      i: 3
    }
  }
  attr {
    key: "T"
    value {
      type: DT_INT32
    }
  }
  attr {
    key: "Tidx"
    value {
      type: DT_INT32
    }
  }
  attr {
    key: "_output_shapes"
    value {
      list {
        shape {
          dim {
            size: 1
          }
        }
      }
    }
  }
}
node {
  name: "report_uninitialized_variables_1/boolean_mask/Reshape"
  op: "Reshape"
  input: "report_uninitialized_variables_1/Const"
  input: "report_uninitialized_variables_1/boolean_mask/concat"
  device: "/device:CPU:0"
  attr {
    key: "T"
    value {
      type: DT_STRING
    }
  }
  attr {
    key: "Tshape"
    value {
      type: DT_INT32
    }
  }
  attr {
    key: "_output_shapes"
    value {
      list {
        shape {
          dim {
            size: 10
          }
        }
      }
    }
  }
}
node {
  name: "report_uninitialized_variables_1/boolean_mask/Reshape_1/shape"
  op: "Const"
  device: "/device:CPU:0"
  attr {
    key: "_output_shapes"
    value {
      list {
        shape {
          dim {
            size: 1
          }
        }
      }
    }
  }
  attr {
    key: "dtype"
    value {
      type: DT_INT32
    }
  }
  attr {
    key: "value"
    value {
      tensor {
        dtype: DT_INT32
        tensor_shape {
          dim {
            size: 1
          }
        }
        int_val: -1
      }
    }
  }
}
node {
  name: "report_uninitialized_variables_1/boolean_mask/Reshape_1"
  op: "Reshape"
  input: "report_uninitialized_variables_1/LogicalNot"
  input: "report_uninitialized_variables_1/boolean_mask/Reshape_1/shape"
  device: "/device:CPU:0"
  attr {
    key: "T"
    value {
      type: DT_BOOL
    }
  }
  attr {
    key: "Tshape"
    value {
      type: DT_INT32
    }
  }
  attr {
    key: "_output_shapes"
    value {
      list {
        shape {
          dim {
            size: 10
          }
        }
      }
    }
  }
}
node {
  name: "report_uninitialized_variables_1/boolean_mask/Where"
  op: "Where"
  input: "report_uninitialized_variables_1/boolean_mask/Reshape_1"
  device: "/device:CPU:0"
  attr {
    key: "T"
    value {
      type: DT_BOOL
    }
  }
  attr {
    key: "_output_shapes"
    value {
      list {
        shape {
          dim {
            size: -1
          }
          dim {
            size: 1
          }
        }
      }
    }
  }
}
node {
  name: "report_uninitialized_variables_1/boolean_mask/Squeeze"
  op: "Squeeze"
  input: "report_uninitialized_variables_1/boolean_mask/Where"
  device: "/device:CPU:0"
  attr {
    key: "T"
    value {
      type: DT_INT64
    }
  }
  attr {
    key: "_output_shapes"
    value {
      list {
        shape {
          dim {
            size: -1
          }
        }
      }
    }
  }
  attr {
    key: "squeeze_dims"
    value {
      list {
        i: 1
      }
    }
  }
}
node {
  name: "report_uninitialized_variables_1/boolean_mask/GatherV2/axis"
  op: "Const"
  device: "/device:CPU:0"
  attr {
    key: "_output_shapes"
    value {
      list {
        shape {
        }
      }
    }
  }
  attr {
    key: "dtype"
    value {
      type: DT_INT32
    }
  }
  attr {
    key: "value"
    value {
      tensor {
        dtype: DT_INT32
        tensor_shape {
        }
        int_val: 0
      }
    }
  }
}
node {
  name: "report_uninitialized_variables_1/boolean_mask/GatherV2"
  op: "GatherV2"
  input: "report_uninitialized_variables_1/boolean_mask/Reshape"
  input: "report_uninitialized_variables_1/boolean_mask/Squeeze"
  input: "report_uninitialized_variables_1/boolean_mask/GatherV2/axis"
  device: "/device:CPU:0"
  attr {
    key: "Taxis"
    value {
      type: DT_INT32
    }
  }
  attr {
    key: "Tindices"
    value {
      type: DT_INT64
    }
  }
  attr {
    key: "Tparams"
    value {
      type: DT_STRING
    }
  }
  attr {
    key: "_output_shapes"
    value {
      list {
        shape {
          dim {
            size: -1
          }
        }
      }
    }
  }
  attr {
    key: "batch_dims"
    value {
      i: 0
    }
  }
}
node {
  name: "report_uninitialized_resources_1/Const"
  op: "Const"
  device: "/device:CPU:0"
  attr {
    key: "_output_shapes"
    value {
      list {
        shape {
          dim {
          }
        }
      }
    }
  }
  attr {
    key: "dtype"
    value {
      type: DT_STRING
    }
  }
  attr {
    key: "value"
    value {
      tensor {
        dtype: DT_STRING
        tensor_shape {
          dim {
          }
        }
      }
    }
  }
}
node {
  name: "concat_1/axis"
  op: "Const"
  attr {
    key: "_output_shapes"
    value {
      list {
        shape {
        }
      }
    }
  }
  attr {
    key: "dtype"
    value {
      type: DT_INT32
    }
  }
  attr {
    key: "value"
    value {
      tensor {
        dtype: DT_INT32
        tensor_shape {
        }
        int_val: 0
      }
    }
  }
}
node {
  name: "concat_1"
  op: "ConcatV2"
  input: "report_uninitialized_variables_1/boolean_mask/GatherV2"
  input: "report_uninitialized_resources_1/Const"
  input: "concat_1/axis"
  attr {
    key: "N"
    value {
      i: 2
    }
  }
  attr {
    key: "T"
    value {
      type: DT_STRING
    }
  }
  attr {
    key: "Tidx"
    value {
      type: DT_INT32
    }
  }
  attr {
    key: "_output_shapes"
    value {
      list {
        shape {
          dim {
            size: -1
          }
        }
      }
    }
  }
}
node {
  name: "init_2"
  op: "NoOp"
}
node {
  name: "init_all_tables"
  op: "NoOp"
  input: "^linear/linear_model/linear_model/linear_model/Species/Species_lookup/hash_table/table_init/LookupTableImportV2"
}
node {
  name: "init_3"
  op: "NoOp"
}
node {
  name: "group_deps_1"
  op: "NoOp"
  input: "^init_2"
  input: "^init_3"
  input: "^init_all_tables"
}
node {
  name: "Merge/MergeSummary"
  op: "MergeSummary"
  input: "linear/bias"
  input: "linear/fraction_of_zero_weights"
  input: "loss"
  input: "average_loss"
  attr {
    key: "N"
    value {
      i: 4
    }
  }
  attr {
    key: "_output_shapes"
    value {
      list {
        shape {
        }
      }
    }
  }
}
node {
  name: "save/filename/input"
  op: "Const"
  attr {
    key: "_output_shapes"
    value {
      list {
        shape {
        }
      }
    }
  }
  attr {
    key: "dtype"
    value {
      type: DT_STRING
    }
  }
  attr {
    key: "value"
    value {
      tensor {
        dtype: DT_STRING
        tensor_shape {
        }
        string_val: "model"
      }
    }
  }
}
node {
  name: "save/filename"
  op: "PlaceholderWithDefault"
  input: "save/filename/input"
  attr {
    key: "_output_shapes"
    value {
      list {
        shape {
        }
      }
    }
  }
  attr {
    key: "dtype"
    value {
      type: DT_STRING
    }
  }
  attr {
    key: "shape"
    value {
      shape {
      }
    }
  }
}
node {
  name: "save/Const"
  op: "PlaceholderWithDefault"
  input: "save/filename"
  attr {
    key: "_output_shapes"
    value {
      list {
        shape {
        }
      }
    }
  }
  attr {
    key: "dtype"
    value {
      type: DT_STRING
    }
  }
  attr {
    key: "shape"
    value {
      shape {
      }
    }
  }
}
node {
  name: "save/Read/ReadVariableOp"
  op: "ReadVariableOp"
  input: "linear/linear_model/Species/weights/part_0"
  attr {
    key: "_output_shapes"
    value {
      list {
        shape {
          dim {
            size: 3
          }
          dim {
            size: 1
          }
        }
      }
    }
  }
  attr {
    key: "dtype"
    value {
      type: DT_FLOAT
    }
  }
}
node {
  name: "save/Identity"
  op: "Identity"
  input: "save/Read/ReadVariableOp"
  attr {
    key: "T"
    value {
      type: DT_FLOAT
    }
  }
  attr {
    key: "_output_shapes"
    value {
      list {
        shape {
          dim {
            size: 3
          }
          dim {
            size: 1
          }
        }
      }
    }
  }
}
node {
  name: "save/Identity_1"
  op: "Identity"
  input: "save/Identity"
  device: "/device:CPU:0"
  attr {
    key: "T"
    value {
      type: DT_FLOAT
    }
  }
  attr {
    key: "_output_shapes"
    value {
      list {
        shape {
          dim {
            size: 3
          }
          dim {
            size: 1
          }
        }
      }
    }
  }
}
node {
  name: "save/Read_1/ReadVariableOp"
  op: "ReadVariableOp"
  input: "linear/linear/linear_model/Species/weights/part_0/Ftrl"
  attr {
    key: "_output_shapes"
    value {
      list {
        shape {
          dim {
            size: 3
          }
          dim {
            size: 1
          }
        }
      }
    }
  }
  attr {
    key: "dtype"
    value {
      type: DT_FLOAT
    }
  }
}
node {
  name: "save/Identity_2"
  op: "Identity"
  input: "save/Read_1/ReadVariableOp"
  attr {
    key: "T"
    value {
      type: DT_FLOAT
    }
  }
  attr {
    key: "_output_shapes"
    value {
      list {
        shape {
          dim {
            size: 3
          }
          dim {
            size: 1
          }
        }
      }
    }
  }
}
node {
  name: "save/Identity_3"
  op: "Identity"
  input: "save/Identity_2"
  device: "/device:CPU:0"
  attr {
    key: "T"
    value {
      type: DT_FLOAT
    }
  }
  attr {
    key: "_output_shapes"
    value {
      list {
        shape {
          dim {
            size: 3
          }
          dim {
            size: 1
          }
        }
      }
    }
  }
}
node {
  name: "save/Read_2/ReadVariableOp"
  op: "ReadVariableOp"
  input: "linear/linear/linear_model/Species/weights/part_0/Ftrl_1"
  attr {
    key: "_output_shapes"
    value {
      list {
        shape {
          dim {
            size: 3
          }
          dim {
            size: 1
          }
        }
      }
    }
  }
  attr {
    key: "dtype"
    value {
      type: DT_FLOAT
    }
  }
}
node {
  name: "save/Identity_4"
  op: "Identity"
  input: "save/Read_2/ReadVariableOp"
  attr {
    key: "T"
    value {
      type: DT_FLOAT
    }
  }
  attr {
    key: "_output_shapes"
    value {
      list {
        shape {
          dim {
            size: 3
          }
          dim {
            size: 1
          }
        }
      }
    }
  }
}
node {
  name: "save/Identity_5"
  op: "Identity"
  input: "save/Identity_4"
  device: "/device:CPU:0"
  attr {
    key: "T"
    value {
      type: DT_FLOAT
    }
  }
  attr {
    key: "_output_shapes"
    value {
      list {
        shape {
          dim {
            size: 3
          }
          dim {
            size: 1
          }
        }
      }
    }
  }
}
node {
  name: "save/Read_3/ReadVariableOp"
  op: "ReadVariableOp"
  input: "linear/linear_model/Weight/weights/part_0"
  attr {
    key: "_output_shapes"
    value {
      list {
        shape {
          dim {
            size: 1
          }
          dim {
            size: 1
          }
        }
      }
    }
  }
  attr {
    key: "dtype"
    value {
      type: DT_FLOAT
    }
  }
}
node {
  name: "save/Identity_6"
  op: "Identity"
  input: "save/Read_3/ReadVariableOp"
  attr {
    key: "T"
    value {
      type: DT_FLOAT
    }
  }
  attr {
    key: "_output_shapes"
    value {
      list {
        shape {
          dim {
            size: 1
          }
          dim {
            size: 1
          }
        }
      }
    }
  }
}
node {
  name: "save/Identity_7"
  op: "Identity"
  input: "save/Identity_6"
  device: "/device:CPU:0"
  attr {
    key: "T"
    value {
      type: DT_FLOAT
    }
  }
  attr {
    key: "_output_shapes"
    value {
      list {
        shape {
          dim {
            size: 1
          }
          dim {
            size: 1
          }
        }
      }
    }
  }
}
node {
  name: "save/Read_4/ReadVariableOp"
  op: "ReadVariableOp"
  input: "linear/linear/linear_model/Weight/weights/part_0/Ftrl"
  attr {
    key: "_output_shapes"
    value {
      list {
        shape {
          dim {
            size: 1
          }
          dim {
            size: 1
          }
        }
      }
    }
  }
  attr {
    key: "dtype"
    value {
      type: DT_FLOAT
    }
  }
}
node {
  name: "save/Identity_8"
  op: "Identity"
  input: "save/Read_4/ReadVariableOp"
  attr {
    key: "T"
    value {
      type: DT_FLOAT
    }
  }
  attr {
    key: "_output_shapes"
    value {
      list {
        shape {
          dim {
            size: 1
          }
          dim {
            size: 1
          }
        }
      }
    }
  }
}
node {
  name: "save/Identity_9"
  op: "Identity"
  input: "save/Identity_8"
  device: "/device:CPU:0"
  attr {
    key: "T"
    value {
      type: DT_FLOAT
    }
  }
  attr {
    key: "_output_shapes"
    value {
      list {
        shape {
          dim {
            size: 1
          }
          dim {
            size: 1
          }
        }
      }
    }
  }
}
node {
  name: "save/Read_5/ReadVariableOp"
  op: "ReadVariableOp"
  input: "linear/linear/linear_model/Weight/weights/part_0/Ftrl_1"
  attr {
    key: "_output_shapes"
    value {
      list {
        shape {
          dim {
            size: 1
          }
          dim {
            size: 1
          }
        }
      }
    }
  }
  attr {
    key: "dtype"
    value {
      type: DT_FLOAT
    }
  }
}
node {
  name: "save/Identity_10"
  op: "Identity"
  input: "save/Read_5/ReadVariableOp"
  attr {
    key: "T"
    value {
      type: DT_FLOAT
    }
  }
  attr {
    key: "_output_shapes"
    value {
      list {
        shape {
          dim {
            size: 1
          }
          dim {
            size: 1
          }
        }
      }
    }
  }
}
node {
  name: "save/Identity_11"
  op: "Identity"
  input: "save/Identity_10"
  device: "/device:CPU:0"
  attr {
    key: "T"
    value {
      type: DT_FLOAT
    }
  }
  attr {
    key: "_output_shapes"
    value {
      list {
        shape {
          dim {
            size: 1
          }
          dim {
            size: 1
          }
        }
      }
    }
  }
}
node {
  name: "save/Read_6/ReadVariableOp"
  op: "ReadVariableOp"
  input: "linear/linear_model/bias_weights/part_0"
  attr {
    key: "_output_shapes"
    value {
      list {
        shape {
          dim {
            size: 1
          }
        }
      }
    }
  }
  attr {
    key: "dtype"
    value {
      type: DT_FLOAT
    }
  }
}
node {
  name: "save/Identity_12"
  op: "Identity"
  input: "save/Read_6/ReadVariableOp"
  attr {
    key: "T"
    value {
      type: DT_FLOAT
    }
  }
  attr {
    key: "_output_shapes"
    value {
      list {
        shape {
          dim {
            size: 1
          }
        }
      }
    }
  }
}
node {
  name: "save/Identity_13"
  op: "Identity"
  input: "save/Identity_12"
  device: "/device:CPU:0"
  attr {
    key: "T"
    value {
      type: DT_FLOAT
    }
  }
  attr {
    key: "_output_shapes"
    value {
      list {
        shape {
          dim {
            size: 1
          }
        }
      }
    }
  }
}
node {
  name: "save/Read_7/ReadVariableOp"
  op: "ReadVariableOp"
  input: "linear/linear/linear_model/bias_weights/part_0/Ftrl"
  attr {
    key: "_output_shapes"
    value {
      list {
        shape {
          dim {
            size: 1
          }
        }
      }
    }
  }
  attr {
    key: "dtype"
    value {
      type: DT_FLOAT
    }
  }
}
node {
  name: "save/Identity_14"
  op: "Identity"
  input: "save/Read_7/ReadVariableOp"
  attr {
    key: "T"
    value {
      type: DT_FLOAT
    }
  }
  attr {
    key: "_output_shapes"
    value {
      list {
        shape {
          dim {
            size: 1
          }
        }
      }
    }
  }
}
node {
  name: "save/Identity_15"
  op: "Identity"
  input: "save/Identity_14"
  device: "/device:CPU:0"
  attr {
    key: "T"
    value {
      type: DT_FLOAT
    }
  }
  attr {
    key: "_output_shapes"
    value {
      list {
        shape {
          dim {
            size: 1
          }
        }
      }
    }
  }
}
node {
  name: "save/Read_8/ReadVariableOp"
  op: "ReadVariableOp"
  input: "linear/linear/linear_model/bias_weights/part_0/Ftrl_1"
  attr {
    key: "_output_shapes"
    value {
      list {
        shape {
          dim {
            size: 1
          }
        }
      }
    }
  }
  attr {
    key: "dtype"
    value {
      type: DT_FLOAT
    }
  }
}
node {
  name: "save/Identity_16"
  op: "Identity"
  input: "save/Read_8/ReadVariableOp"
  attr {
    key: "T"
    value {
      type: DT_FLOAT
    }
  }
  attr {
    key: "_output_shapes"
    value {
      list {
        shape {
          dim {
            size: 1
          }
        }
      }
    }
  }
}
node {
  name: "save/Identity_17"
  op: "Identity"
  input: "save/Identity_16"
  device: "/device:CPU:0"
  attr {
    key: "T"
    value {
      type: DT_FLOAT
    }
  }
  attr {
    key: "_output_shapes"
    value {
      list {
        shape {
          dim {
            size: 1
          }
        }
      }
    }
  }
}
node {
  name: "save/StringJoin/inputs_1"
  op: "Const"
  attr {
    key: "_output_shapes"
    value {
      list {
        shape {
        }
      }
    }
  }
  attr {
    key: "dtype"
    value {
      type: DT_STRING
    }
  }
  attr {
    key: "value"
    value {
      tensor {
        dtype: DT_STRING
        tensor_shape {
        }
        string_val: "_temp_28c5e9127f2c47ed9887d588cfd53b0b/part"
      }
    }
  }
}
node {
  name: "save/StringJoin"
  op: "StringJoin"
  input: "save/Const"
  input: "save/StringJoin/inputs_1"
  attr {
    key: "N"
    value {
      i: 2
    }
  }
  attr {
    key: "_output_shapes"
    value {
      list {
        shape {
        }
      }
    }
  }
  attr {
    key: "separator"
    value {
      s: ""
    }
  }
}
node {
  name: "save/num_shards"
  op: "Const"
  attr {
    key: "_output_shapes"
    value {
      list {
        shape {
        }
      }
    }
  }
  attr {
    key: "dtype"
    value {
      type: DT_INT32
    }
  }
  attr {
    key: "value"
    value {
      tensor {
        dtype: DT_INT32
        tensor_shape {
        }
        int_val: 2
      }
    }
  }
}
node {
  name: "save/ShardedFilename/shard"
  op: "Const"
  device: "/device:CPU:0"
  attr {
    key: "_output_shapes"
    value {
      list {
        shape {
        }
      }
    }
  }
  attr {
    key: "dtype"
    value {
      type: DT_INT32
    }
  }
  attr {
    key: "value"
    value {
      tensor {
        dtype: DT_INT32
        tensor_shape {
        }
        int_val: 0
      }
    }
  }
}
node {
  name: "save/ShardedFilename"
  op: "ShardedFilename"
  input: "save/StringJoin"
  input: "save/ShardedFilename/shard"
  input: "save/num_shards"
  device: "/device:CPU:0"
  attr {
    key: "_output_shapes"
    value {
      list {
        shape {
        }
      }
    }
  }
}
node {
  name: "save/SaveV2/tensor_names"
  op: "Const"
  device: "/device:CPU:0"
  attr {
    key: "_output_shapes"
    value {
      list {
        shape {
          dim {
            size: 1
          }
        }
      }
    }
  }
  attr {
    key: "dtype"
    value {
      type: DT_STRING
    }
  }
  attr {
    key: "value"
    value {
      tensor {
        dtype: DT_STRING
        tensor_shape {
          dim {
            size: 1
          }
        }
        string_val: "global_step"
      }
    }
  }
}
node {
  name: "save/SaveV2/shape_and_slices"
  op: "Const"
  device: "/device:CPU:0"
  attr {
    key: "_output_shapes"
    value {
      list {
        shape {
          dim {
            size: 1
          }
        }
      }
    }
  }
  attr {
    key: "dtype"
    value {
      type: DT_STRING
    }
  }
  attr {
    key: "value"
    value {
      tensor {
        dtype: DT_STRING
        tensor_shape {
          dim {
            size: 1
          }
        }
        string_val: ""
      }
    }
  }
}
node {
  name: "save/SaveV2"
  op: "SaveV2"
  input: "save/ShardedFilename"
  input: "save/SaveV2/tensor_names"
  input: "save/SaveV2/shape_and_slices"
  input: "global_step"
  device: "/device:CPU:0"
  attr {
    key: "dtypes"
    value {
      list {
        type: DT_INT64
      }
    }
  }
}
node {
  name: "save/control_dependency"
  op: "Identity"
  input: "save/ShardedFilename"
  input: "^save/SaveV2"
  device: "/device:CPU:0"
  attr {
    key: "T"
    value {
      type: DT_STRING
    }
  }
  attr {
    key: "_class"
    value {
      list {
        s: "loc:@save/ShardedFilename"
      }
    }
  }
  attr {
    key: "_output_shapes"
    value {
      list {
        shape {
        }
      }
    }
  }
}
node {
  name: "save/ShardedFilename_1/shard"
  op: "Const"
  device: "/device:CPU:0"
  attr {
    key: "_output_shapes"
    value {
      list {
        shape {
        }
      }
    }
  }
  attr {
    key: "dtype"
    value {
      type: DT_INT32
    }
  }
  attr {
    key: "value"
    value {
      tensor {
        dtype: DT_INT32
        tensor_shape {
        }
        int_val: 1
      }
    }
  }
}
node {
  name: "save/ShardedFilename_1"
  op: "ShardedFilename"
  input: "save/StringJoin"
  input: "save/ShardedFilename_1/shard"
  input: "save/num_shards"
  device: "/device:CPU:0"
  attr {
    key: "_output_shapes"
    value {
      list {
        shape {
        }
      }
    }
  }
}
node {
  name: "save/Read_9/ReadVariableOp"
  op: "ReadVariableOp"
  input: "linear/linear_model/Species/weights/part_0"
  device: "/device:CPU:0"
  attr {
    key: "_output_shapes"
    value {
      list {
        shape {
          dim {
            size: 3
          }
          dim {
            size: 1
          }
        }
      }
    }
  }
  attr {
    key: "dtype"
    value {
      type: DT_FLOAT
    }
  }
}
node {
  name: "save/Identity_18"
  op: "Identity"
  input: "save/Read_9/ReadVariableOp"
  device: "/device:CPU:0"
  attr {
    key: "T"
    value {
      type: DT_FLOAT
    }
  }
  attr {
    key: "_output_shapes"
    value {
      list {
        shape {
          dim {
            size: 3
          }
          dim {
            size: 1
          }
        }
      }
    }
  }
}
node {
  name: "save/Identity_19"
  op: "Identity"
  input: "save/Identity_18"
  device: "/device:CPU:0"
  attr {
    key: "T"
    value {
      type: DT_FLOAT
    }
  }
  attr {
    key: "_output_shapes"
    value {
      list {
        shape {
          dim {
            size: 3
          }
          dim {
            size: 1
          }
        }
      }
    }
  }
}
node {
  name: "save/Read_10/ReadVariableOp"
  op: "ReadVariableOp"
  input: "linear/linear/linear_model/Species/weights/part_0/Ftrl"
  device: "/device:CPU:0"
  attr {
    key: "_output_shapes"
    value {
      list {
        shape {
          dim {
            size: 3
          }
          dim {
            size: 1
          }
        }
      }
    }
  }
  attr {
    key: "dtype"
    value {
      type: DT_FLOAT
    }
  }
}
node {
  name: "save/Identity_20"
  op: "Identity"
  input: "save/Read_10/ReadVariableOp"
  device: "/device:CPU:0"
  attr {
    key: "T"
    value {
      type: DT_FLOAT
    }
  }
  attr {
    key: "_output_shapes"
    value {
      list {
        shape {
          dim {
            size: 3
          }
          dim {
            size: 1
          }
        }
      }
    }
  }
}
node {
  name: "save/Identity_21"
  op: "Identity"
  input: "save/Identity_20"
  device: "/device:CPU:0"
  attr {
    key: "T"
    value {
      type: DT_FLOAT
    }
  }
  attr {
    key: "_output_shapes"
    value {
      list {
        shape {
          dim {
            size: 3
          }
          dim {
            size: 1
          }
        }
      }
    }
  }
}
node {
  name: "save/Read_11/ReadVariableOp"
  op: "ReadVariableOp"
  input: "linear/linear/linear_model/Species/weights/part_0/Ftrl_1"
  device: "/device:CPU:0"
  attr {
    key: "_output_shapes"
    value {
      list {
        shape {
          dim {
            size: 3
          }
          dim {
            size: 1
          }
        }
      }
    }
  }
  attr {
    key: "dtype"
    value {
      type: DT_FLOAT
    }
  }
}
node {
  name: "save/Identity_22"
  op: "Identity"
  input: "save/Read_11/ReadVariableOp"
  device: "/device:CPU:0"
  attr {
    key: "T"
    value {
      type: DT_FLOAT
    }
  }
  attr {
    key: "_output_shapes"
    value {
      list {
        shape {
          dim {
            size: 3
          }
          dim {
            size: 1
          }
        }
      }
    }
  }
}
node {
  name: "save/Identity_23"
  op: "Identity"
  input: "save/Identity_22"
  device: "/device:CPU:0"
  attr {
    key: "T"
    value {
      type: DT_FLOAT
    }
  }
  attr {
    key: "_output_shapes"
    value {
      list {
        shape {
          dim {
            size: 3
          }
          dim {
            size: 1
          }
        }
      }
    }
  }
}
node {
  name: "save/Read_12/ReadVariableOp"
  op: "ReadVariableOp"
  input: "linear/linear_model/Weight/weights/part_0"
  device: "/device:CPU:0"
  attr {
    key: "_output_shapes"
    value {
      list {
        shape {
          dim {
            size: 1
          }
          dim {
            size: 1
          }
        }
      }
    }
  }
  attr {
    key: "dtype"
    value {
      type: DT_FLOAT
    }
  }
}
node {
  name: "save/Identity_24"
  op: "Identity"
  input: "save/Read_12/ReadVariableOp"
  device: "/device:CPU:0"
  attr {
    key: "T"
    value {
      type: DT_FLOAT
    }
  }
  attr {
    key: "_output_shapes"
    value {
      list {
        shape {
          dim {
            size: 1
          }
          dim {
            size: 1
          }
        }
      }
    }
  }
}
node {
  name: "save/Identity_25"
  op: "Identity"
  input: "save/Identity_24"
  device: "/device:CPU:0"
  attr {
    key: "T"
    value {
      type: DT_FLOAT
    }
  }
  attr {
    key: "_output_shapes"
    value {
      list {
        shape {
          dim {
            size: 1
          }
          dim {
            size: 1
          }
        }
      }
    }
  }
}
node {
  name: "save/Read_13/ReadVariableOp"
  op: "ReadVariableOp"
  input: "linear/linear/linear_model/Weight/weights/part_0/Ftrl"
  device: "/device:CPU:0"
  attr {
    key: "_output_shapes"
    value {
      list {
        shape {
          dim {
            size: 1
          }
          dim {
            size: 1
          }
        }
      }
    }
  }
  attr {
    key: "dtype"
    value {
      type: DT_FLOAT
    }
  }
}
node {
  name: "save/Identity_26"
  op: "Identity"
  input: "save/Read_13/ReadVariableOp"
  device: "/device:CPU:0"
  attr {
    key: "T"
    value {
      type: DT_FLOAT
    }
  }
  attr {
    key: "_output_shapes"
    value {
      list {
        shape {
          dim {
            size: 1
          }
          dim {
            size: 1
          }
        }
      }
    }
  }
}
node {
  name: "save/Identity_27"
  op: "Identity"
  input: "save/Identity_26"
  device: "/device:CPU:0"
  attr {
    key: "T"
    value {
      type: DT_FLOAT
    }
  }
  attr {
    key: "_output_shapes"
    value {
      list {
        shape {
          dim {
            size: 1
          }
          dim {
            size: 1
          }
        }
      }
    }
  }
}
node {
  name: "save/Read_14/ReadVariableOp"
  op: "ReadVariableOp"
  input: "linear/linear/linear_model/Weight/weights/part_0/Ftrl_1"
  device: "/device:CPU:0"
  attr {
    key: "_output_shapes"
    value {
      list {
        shape {
          dim {
            size: 1
          }
          dim {
            size: 1
          }
        }
      }
    }
  }
  attr {
    key: "dtype"
    value {
      type: DT_FLOAT
    }
  }
}
node {
  name: "save/Identity_28"
  op: "Identity"
  input: "save/Read_14/ReadVariableOp"
  device: "/device:CPU:0"
  attr {
    key: "T"
    value {
      type: DT_FLOAT
    }
  }
  attr {
    key: "_output_shapes"
    value {
      list {
        shape {
          dim {
            size: 1
          }
          dim {
            size: 1
          }
        }
      }
    }
  }
}
node {
  name: "save/Identity_29"
  op: "Identity"
  input: "save/Identity_28"
  device: "/device:CPU:0"
  attr {
    key: "T"
    value {
      type: DT_FLOAT
    }
  }
  attr {
    key: "_output_shapes"
    value {
      list {
        shape {
          dim {
            size: 1
          }
          dim {
            size: 1
          }
        }
      }
    }
  }
}
node {
  name: "save/Read_15/ReadVariableOp"
  op: "ReadVariableOp"
  input: "linear/linear_model/bias_weights/part_0"
  device: "/device:CPU:0"
  attr {
    key: "_output_shapes"
    value {
      list {
        shape {
          dim {
            size: 1
          }
        }
      }
    }
  }
  attr {
    key: "dtype"
    value {
      type: DT_FLOAT
    }
  }
}
node {
  name: "save/Identity_30"
  op: "Identity"
  input: "save/Read_15/ReadVariableOp"
  device: "/device:CPU:0"
  attr {
    key: "T"
    value {
      type: DT_FLOAT
    }
  }
  attr {
    key: "_output_shapes"
    value {
      list {
        shape {
          dim {
            size: 1
          }
        }
      }
    }
  }
}
node {
  name: "save/Identity_31"
  op: "Identity"
  input: "save/Identity_30"
  device: "/device:CPU:0"
  attr {
    key: "T"
    value {
      type: DT_FLOAT
    }
  }
  attr {
    key: "_output_shapes"
    value {
      list {
        shape {
          dim {
            size: 1
          }
        }
      }
    }
  }
}
node {
  name: "save/Read_16/ReadVariableOp"
  op: "ReadVariableOp"
  input: "linear/linear/linear_model/bias_weights/part_0/Ftrl"
  device: "/device:CPU:0"
  attr {
    key: "_output_shapes"
    value {
      list {
        shape {
          dim {
            size: 1
          }
        }
      }
    }
  }
  attr {
    key: "dtype"
    value {
      type: DT_FLOAT
    }
  }
}
node {
  name: "save/Identity_32"
  op: "Identity"
  input: "save/Read_16/ReadVariableOp"
  device: "/device:CPU:0"
  attr {
    key: "T"
    value {
      type: DT_FLOAT
    }
  }
  attr {
    key: "_output_shapes"
    value {
      list {
        shape {
          dim {
            size: 1
          }
        }
      }
    }
  }
}
node {
  name: "save/Identity_33"
  op: "Identity"
  input: "save/Identity_32"
  device: "/device:CPU:0"
  attr {
    key: "T"
    value {
      type: DT_FLOAT
    }
  }
  attr {
    key: "_output_shapes"
    value {
      list {
        shape {
          dim {
            size: 1
          }
        }
      }
    }
  }
}
node {
  name: "save/Read_17/ReadVariableOp"
  op: "ReadVariableOp"
  input: "linear/linear/linear_model/bias_weights/part_0/Ftrl_1"
  device: "/device:CPU:0"
  attr {
    key: "_output_shapes"
    value {
      list {
        shape {
          dim {
            size: 1
          }
        }
      }
    }
  }
  attr {
    key: "dtype"
    value {
      type: DT_FLOAT
    }
  }
}
node {
  name: "save/Identity_34"
  op: "Identity"
  input: "save/Read_17/ReadVariableOp"
  device: "/device:CPU:0"
  attr {
    key: "T"
    value {
      type: DT_FLOAT
    }
  }
  attr {
    key: "_output_shapes"
    value {
      list {
        shape {
          dim {
            size: 1
          }
        }
      }
    }
  }
}
node {
  name: "save/Identity_35"
  op: "Identity"
  input: "save/Identity_34"
  device: "/device:CPU:0"
  attr {
    key: "T"
    value {
      type: DT_FLOAT
    }
  }
  attr {
    key: "_output_shapes"
    value {
      list {
        shape {
          dim {
            size: 1
          }
        }
      }
    }
  }
}
node {
  name: "save/SaveV2_1/tensor_names"
  op: "Const"
  device: "/device:CPU:0"
  attr {
    key: "_output_shapes"
    value {
      list {
        shape {
          dim {
            size: 9
          }
        }
      }
    }
  }
  attr {
    key: "dtype"
    value {
      type: DT_STRING
    }
  }
  attr {
    key: "value"
    value {
      tensor {
        dtype: DT_STRING
        tensor_shape {
          dim {
            size: 9
          }
        }
        string_val: "linear/linear_model/Species/weights"
        string_val: "linear/linear_model/Species/weights/part_0/Ftrl"
        string_val: "linear/linear_model/Species/weights/part_0/Ftrl_1"
        string_val: "linear/linear_model/Weight/weights"
        string_val: "linear/linear_model/Weight/weights/part_0/Ftrl"
        string_val: "linear/linear_model/Weight/weights/part_0/Ftrl_1"
        string_val: "linear/linear_model/bias_weights"
        string_val: "linear/linear_model/bias_weights/part_0/Ftrl"
        string_val: "linear/linear_model/bias_weights/part_0/Ftrl_1"
      }
    }
  }
}
node {
  name: "save/SaveV2_1/shape_and_slices"
  op: "Const"
  device: "/device:CPU:0"
  attr {
    key: "_output_shapes"
    value {
      list {
        shape {
          dim {
            size: 9
          }
        }
      }
    }
  }
  attr {
    key: "dtype"
    value {
      type: DT_STRING
    }
  }
  attr {
    key: "value"
    value {
      tensor {
        dtype: DT_STRING
        tensor_shape {
          dim {
            size: 9
          }
        }
        string_val: "3 1 0,3:0,1"
        string_val: "3 1 0,3:0,1"
        string_val: "3 1 0,3:0,1"
        string_val: "1 1 0,1:0,1"
        string_val: "1 1 0,1:0,1"
        string_val: "1 1 0,1:0,1"
        string_val: "1 0,1"
        string_val: "1 0,1"
        string_val: "1 0,1"
      }
    }
  }
}
node {
  name: "save/SaveV2_1"
  op: "SaveV2"
  input: "save/ShardedFilename_1"
  input: "save/SaveV2_1/tensor_names"
  input: "save/SaveV2_1/shape_and_slices"
  input: "save/Identity_19"
  input: "save/Identity_21"
  input: "save/Identity_23"
  input: "save/Identity_25"
  input: "save/Identity_27"
  input: "save/Identity_29"
  input: "save/Identity_31"
  input: "save/Identity_33"
  input: "save/Identity_35"
  device: "/device:CPU:0"
  attr {
    key: "dtypes"
    value {
      list {
        type: DT_FLOAT
        type: DT_FLOAT
        type: DT_FLOAT
        type: DT_FLOAT
        type: DT_FLOAT
        type: DT_FLOAT
        type: DT_FLOAT
        type: DT_FLOAT
        type: DT_FLOAT
      }
    }
  }
}
node {
  name: "save/control_dependency_1"
  op: "Identity"
  input: "save/ShardedFilename_1"
  input: "^save/SaveV2_1"
  device: "/device:CPU:0"
  attr {
    key: "T"
    value {
      type: DT_STRING
    }
  }
  attr {
    key: "_class"
    value {
      list {
        s: "loc:@save/ShardedFilename_1"
      }
    }
  }
  attr {
    key: "_output_shapes"
    value {
      list {
        shape {
        }
      }
    }
  }
}
node {
  name: "save/MergeV2Checkpoints/checkpoint_prefixes"
  op: "Pack"
  input: "save/ShardedFilename"
  input: "save/ShardedFilename_1"
  input: "^save/control_dependency"
  input: "^save/control_dependency_1"
  device: "/device:CPU:0"
  attr {
    key: "N"
    value {
      i: 2
    }
  }
  attr {
    key: "T"
    value {
      type: DT_STRING
    }
  }
  attr {
    key: "_output_shapes"
    value {
      list {
        shape {
          dim {
            size: 2
          }
        }
      }
    }
  }
  attr {
    key: "axis"
    value {
      i: 0
    }
  }
}
node {
  name: "save/MergeV2Checkpoints"
  op: "MergeV2Checkpoints"
  input: "save/MergeV2Checkpoints/checkpoint_prefixes"
  input: "save/Const"
  device: "/device:CPU:0"
  attr {
    key: "delete_old_dirs"
    value {
      b: true
    }
  }
}
node {
  name: "save/Identity_36"
  op: "Identity"
  input: "save/Const"
  input: "^save/MergeV2Checkpoints"
  input: "^save/control_dependency"
  input: "^save/control_dependency_1"
  device: "/device:CPU:0"
  attr {
    key: "T"
    value {
      type: DT_STRING
    }
  }
  attr {
    key: "_output_shapes"
    value {
      list {
        shape {
        }
      }
    }
  }
}
node {
  name: "save/RestoreV2/tensor_names"
  op: "Const"
  device: "/device:CPU:0"
  attr {
    key: "_output_shapes"
    value {
      list {
        shape {
          dim {
            size: 1
          }
        }
      }
    }
  }
  attr {
    key: "dtype"
    value {
      type: DT_STRING
    }
  }
  attr {
    key: "value"
    value {
      tensor {
        dtype: DT_STRING
        tensor_shape {
          dim {
            size: 1
          }
        }
        string_val: "global_step"
      }
    }
  }
}
node {
  name: "save/RestoreV2/shape_and_slices"
  op: "Const"
  device: "/device:CPU:0"
  attr {
    key: "_output_shapes"
    value {
      list {
        shape {
          dim {
            size: 1
          }
        }
      }
    }
  }
  attr {
    key: "dtype"
    value {
      type: DT_STRING
    }
  }
  attr {
    key: "value"
    value {
      tensor {
        dtype: DT_STRING
        tensor_shape {
          dim {
            size: 1
          }
        }
        string_val: ""
      }
    }
  }
}
node {
  name: "save/RestoreV2"
  op: "RestoreV2"
  input: "save/Const"
  input: "save/RestoreV2/tensor_names"
  input: "save/RestoreV2/shape_and_slices"
  device: "/device:CPU:0"
  attr {
    key: "_output_shapes"
    value {
      list {
        shape {
          unknown_rank: true
        }
      }
    }
  }
  attr {
    key: "dtypes"
    value {
      list {
        type: DT_INT64
      }
    }
  }
}
node {
  name: "save/Assign"
  op: "Assign"
  input: "global_step"
  input: "save/RestoreV2"
  attr {
    key: "T"
    value {
      type: DT_INT64
    }
  }
  attr {
    key: "_class"
    value {
      list {
        s: "loc:@global_step"
      }
    }
  }
  attr {
    key: "_output_shapes"
    value {
      list {
        shape {
        }
      }
    }
  }
  attr {
    key: "use_locking"
    value {
      b: true
    }
  }
  attr {
    key: "validate_shape"
    value {
      b: true
    }
  }
}
node {
  name: "save/restore_shard"
  op: "NoOp"
  input: "^save/Assign"
}
node {
  name: "save/RestoreV2_1/tensor_names"
  op: "Const"
  device: "/device:CPU:0"
  attr {
    key: "_output_shapes"
    value {
      list {
        shape {
          dim {
            size: 9
          }
        }
      }
    }
  }
  attr {
    key: "dtype"
    value {
      type: DT_STRING
    }
  }
  attr {
    key: "value"
    value {
      tensor {
        dtype: DT_STRING
        tensor_shape {
          dim {
            size: 9
          }
        }
        string_val: "linear/linear_model/Species/weights"
        string_val: "linear/linear_model/Species/weights/part_0/Ftrl"
        string_val: "linear/linear_model/Species/weights/part_0/Ftrl_1"
        string_val: "linear/linear_model/Weight/weights"
        string_val: "linear/linear_model/Weight/weights/part_0/Ftrl"
        string_val: "linear/linear_model/Weight/weights/part_0/Ftrl_1"
        string_val: "linear/linear_model/bias_weights"
        string_val: "linear/linear_model/bias_weights/part_0/Ftrl"
        string_val: "linear/linear_model/bias_weights/part_0/Ftrl_1"
      }
    }
  }
}
node {
  name: "save/RestoreV2_1/shape_and_slices"
  op: "Const"
  device: "/device:CPU:0"
  attr {
    key: "_output_shapes"
    value {
      list {
        shape {
          dim {
            size: 9
          }
        }
      }
    }
  }
  attr {
    key: "dtype"
    value {
      type: DT_STRING
    }
  }
  attr {
    key: "value"
    value {
      tensor {
        dtype: DT_STRING
        tensor_shape {
          dim {
            size: 9
          }
        }
        string_val: "3 1 0,3:0,1"
        string_val: "3 1 0,3:0,1"
        string_val: "3 1 0,3:0,1"
        string_val: "1 1 0,1:0,1"
        string_val: "1 1 0,1:0,1"
        string_val: "1 1 0,1:0,1"
        string_val: "1 0,1"
        string_val: "1 0,1"
        string_val: "1 0,1"
      }
    }
  }
}
node {
  name: "save/RestoreV2_1"
  op: "RestoreV2"
  input: "save/Const"
  input: "save/RestoreV2_1/tensor_names"
  input: "save/RestoreV2_1/shape_and_slices"
  device: "/device:CPU:0"
  attr {
    key: "_output_shapes"
    value {
      list {
        shape {
          dim {
            size: 3
          }
          dim {
            size: 1
          }
        }
        shape {
          dim {
            size: 3
          }
          dim {
            size: 1
          }
        }
        shape {
          dim {
            size: 3
          }
          dim {
            size: 1
          }
        }
        shape {
          dim {
            size: 1
          }
          dim {
            size: 1
          }
        }
        shape {
          dim {
            size: 1
          }
          dim {
            size: 1
          }
        }
        shape {
          dim {
            size: 1
          }
          dim {
            size: 1
          }
        }
        shape {
          dim {
            size: 1
          }
        }
        shape {
          dim {
            size: 1
          }
        }
        shape {
          dim {
            size: 1
          }
        }
      }
    }
  }
  attr {
    key: "dtypes"
    value {
      list {
        type: DT_FLOAT
        type: DT_FLOAT
        type: DT_FLOAT
        type: DT_FLOAT
        type: DT_FLOAT
        type: DT_FLOAT
        type: DT_FLOAT
        type: DT_FLOAT
        type: DT_FLOAT
      }
    }
  }
}
node {
  name: "save/Identity_37"
  op: "Identity"
  input: "save/RestoreV2_1"
  device: "/device:CPU:0"
  attr {
    key: "T"
    value {
      type: DT_FLOAT
    }
  }
  attr {
    key: "_output_shapes"
    value {
      list {
        shape {
          dim {
            size: 3
          }
          dim {
            size: 1
          }
        }
      }
    }
  }
}
node {
  name: "save/AssignVariableOp"
  op: "AssignVariableOp"
  input: "linear/linear_model/Species/weights/part_0"
  input: "save/Identity_37"
  device: "/device:CPU:0"
  attr {
    key: "dtype"
    value {
      type: DT_FLOAT
    }
  }
}
node {
  name: "save/Identity_38"
  op: "Identity"
  input: "save/RestoreV2_1:1"
  device: "/device:CPU:0"
  attr {
    key: "T"
    value {
      type: DT_FLOAT
    }
  }
  attr {
    key: "_output_shapes"
    value {
      list {
        shape {
          dim {
            size: 3
          }
          dim {
            size: 1
          }
        }
      }
    }
  }
}
node {
  name: "save/AssignVariableOp_1"
  op: "AssignVariableOp"
  input: "linear/linear/linear_model/Species/weights/part_0/Ftrl"
  input: "save/Identity_38"
  device: "/device:CPU:0"
  attr {
    key: "dtype"
    value {
      type: DT_FLOAT
    }
  }
}
node {
  name: "save/Identity_39"
  op: "Identity"
  input: "save/RestoreV2_1:2"
  device: "/device:CPU:0"
  attr {
    key: "T"
    value {
      type: DT_FLOAT
    }
  }
  attr {
    key: "_output_shapes"
    value {
      list {
        shape {
          dim {
            size: 3
          }
          dim {
            size: 1
          }
        }
      }
    }
  }
}
node {
  name: "save/AssignVariableOp_2"
  op: "AssignVariableOp"
  input: "linear/linear/linear_model/Species/weights/part_0/Ftrl_1"
  input: "save/Identity_39"
  device: "/device:CPU:0"
  attr {
    key: "dtype"
    value {
      type: DT_FLOAT
    }
  }
}
node {
  name: "save/Identity_40"
  op: "Identity"
  input: "save/RestoreV2_1:3"
  device: "/device:CPU:0"
  attr {
    key: "T"
    value {
      type: DT_FLOAT
    }
  }
  attr {
    key: "_output_shapes"
    value {
      list {
        shape {
          dim {
            size: 1
          }
          dim {
            size: 1
          }
        }
      }
    }
  }
}
node {
  name: "save/AssignVariableOp_3"
  op: "AssignVariableOp"
  input: "linear/linear_model/Weight/weights/part_0"
  input: "save/Identity_40"
  device: "/device:CPU:0"
  attr {
    key: "dtype"
    value {
      type: DT_FLOAT
    }
  }
}
node {
  name: "save/Identity_41"
  op: "Identity"
  input: "save/RestoreV2_1:4"
  device: "/device:CPU:0"
  attr {
    key: "T"
    value {
      type: DT_FLOAT
    }
  }
  attr {
    key: "_output_shapes"
    value {
      list {
        shape {
          dim {
            size: 1
          }
          dim {
            size: 1
          }
        }
      }
    }
  }
}
node {
  name: "save/AssignVariableOp_4"
  op: "AssignVariableOp"
  input: "linear/linear/linear_model/Weight/weights/part_0/Ftrl"
  input: "save/Identity_41"
  device: "/device:CPU:0"
  attr {
    key: "dtype"
    value {
      type: DT_FLOAT
    }
  }
}
node {
  name: "save/Identity_42"
  op: "Identity"
  input: "save/RestoreV2_1:5"
  device: "/device:CPU:0"
  attr {
    key: "T"
    value {
      type: DT_FLOAT
    }
  }
  attr {
    key: "_output_shapes"
    value {
      list {
        shape {
          dim {
            size: 1
          }
          dim {
            size: 1
          }
        }
      }
    }
  }
}
node {
  name: "save/AssignVariableOp_5"
  op: "AssignVariableOp"
  input: "linear/linear/linear_model/Weight/weights/part_0/Ftrl_1"
  input: "save/Identity_42"
  device: "/device:CPU:0"
  attr {
    key: "dtype"
    value {
      type: DT_FLOAT
    }
  }
}
node {
  name: "save/Identity_43"
  op: "Identity"
  input: "save/RestoreV2_1:6"
  device: "/device:CPU:0"
  attr {
    key: "T"
    value {
      type: DT_FLOAT
    }
  }
  attr {
    key: "_output_shapes"
    value {
      list {
        shape {
          dim {
            size: 1
          }
        }
      }
    }
  }
}
node {
  name: "save/AssignVariableOp_6"
  op: "AssignVariableOp"
  input: "linear/linear_model/bias_weights/part_0"
  input: "save/Identity_43"
  device: "/device:CPU:0"
  attr {
    key: "dtype"
    value {
      type: DT_FLOAT
    }
  }
}
node {
  name: "save/Identity_44"
  op: "Identity"
  input: "save/RestoreV2_1:7"
  device: "/device:CPU:0"
  attr {
    key: "T"
    value {
      type: DT_FLOAT
    }
  }
  attr {
    key: "_output_shapes"
    value {
      list {
        shape {
          dim {
            size: 1
          }
        }
      }
    }
  }
}
node {
  name: "save/AssignVariableOp_7"
  op: "AssignVariableOp"
  input: "linear/linear/linear_model/bias_weights/part_0/Ftrl"
  input: "save/Identity_44"
  device: "/device:CPU:0"
  attr {
    key: "dtype"
    value {
      type: DT_FLOAT
    }
  }
}
node {
  name: "save/Identity_45"
  op: "Identity"
  input: "save/RestoreV2_1:8"
  device: "/device:CPU:0"
  attr {
    key: "T"
    value {
      type: DT_FLOAT
    }
  }
  attr {
    key: "_output_shapes"
    value {
      list {
        shape {
          dim {
            size: 1
          }
        }
      }
    }
  }
}
node {
  name: "save/AssignVariableOp_8"
  op: "AssignVariableOp"
  input: "linear/linear/linear_model/bias_weights/part_0/Ftrl_1"
  input: "save/Identity_45"
  device: "/device:CPU:0"
  attr {
    key: "dtype"
    value {
      type: DT_FLOAT
    }
  }
}
node {
  name: "save/restore_shard_1"
  op: "NoOp"
  input: "^save/AssignVariableOp"
  input: "^save/AssignVariableOp_1"
  input: "^save/AssignVariableOp_2"
  input: "^save/AssignVariableOp_3"
  input: "^save/AssignVariableOp_4"
  input: "^save/AssignVariableOp_5"
  input: "^save/AssignVariableOp_6"
  input: "^save/AssignVariableOp_7"
  input: "^save/AssignVariableOp_8"
  device: "/device:CPU:0"
}
node {
  name: "save/restore_all/NoOp"
  op: "NoOp"
  input: "^save/restore_shard"
}
node {
  name: "save/restore_all/NoOp_1"
  op: "NoOp"
  input: "^save/restore_shard_1"
  device: "/device:CPU:0"
}
node {
  name: "save/restore_all"
  op: "NoOp"
  input: "^save/restore_all/NoOp"
  input: "^save/restore_all/NoOp_1"
}
versions {
  producer: 134
}
